pretrained_models/dropout_50epochs.pth (torch, 34831 bytes, 5 tensors)

conv1.weight f4 [64, 1, 9, 9]
000000 49 f1 42 bd ec 07 4c bd 1c f1 9f bd 6a 08 df bd
       -0.04759339 -0.049812242 -0.0780966 -0.10890277
000010 d8 11 5f bd 94 31 31 3d de 6b 93 bd df 1a 7b bd
       -0.054460377 0.043260172 -0.071983084 -0.061304923
000020 47 8d 1b bd 9e 95 89 3d 5f d6 ec bd 8b da a6 bc
       -0.03797653 0.0671799 -0.115643255 -0.020367881
000030 97 64 f1 bd 69 55 19 be 5a d6 06 be c9 d8 f8 bd
       -0.11786764 -0.14973988 -0.13167706 -0.121507235
000040 de 71 bf bd 12 d3 ba bd 03 ba e1 bd e6 35 3e be
       -0.0934789 -0.0912229 -0.11021807 -0.18575248
000050 bc 6f 17 be e3 0c fa bc f7 bb 0c be 3e 0f 65 bd
       -0.14788717 -0.030523723 -0.13743578 -0.05592274
000060 fc ca b0 bd 69 fb 5f bd a6 b4 28 be 93 4f 07 3c
       -0.08632466 -0.054683123 -0.16475162 0.008258718
000070 6e 52 f1 bd ff 58 de bd f8 c0 0d bd 84 5d 5a bd
       -0.117833 -0.108568184 -0.034607857 -0.05331184
000080 95 03 0a be 36 cb ce bd ef 53 49 be e0 ff 0d be
       -0.13477929 -0.10097353 -0.19660924 -0.1386714
000090 58 7c 0c 3d 01 5d ef bd 84 4e 0d be ad e4 df bd
       0.03429827 -0.11687661 -0.13799483 -0.10932288
0000a0 1f 95 c7 bd 1d b2 fd bd ca d6 15 be 40 19 fa bd
       -0.097452395 -0.12387488 -0.14632717 -0.12211847
0000b0 ab c4 c9 bd fd 41 58 3d fc ab f7 bc eb 66 21 bc
       -0.098519646 0.052797306 -0.030233376 -0.009851198
0000c0 4a 75 fd bd ce a7 95 3d 89 60 1c 3d a1 00 1d 3d
       -0.12375887 0.07307397 0.038178 0.038330678
0000d0 5f dc 24 be 3b 3a ef bd 08 48 90 bc e1 c7 d3 bd
       -0.1609969 -0.116810285 -0.017612472 -0.10340858
0000e0 14 4f b2 bd 1c 8f ed 3d bf b7 e3 3d e3 d4 b0 3d
       -0.08706489 0.115995616 0.11119031 0.08634355
0000f0 26 82 cb 3d 30 e7 b8 bc 63 d3 72 3c 9a 79 86 3c
       0.09936933 -0.022571176 0.014820906 0.016415406
000100 5d ae 01 3c d0 b7 ae 3c 03 9c be 3d f2 f4 17 3e
       0.007915107 0.021327883 0.093071006 0.14839533
000110 b5 49 46 3c 01 73 8b 3d 36 95 c9 bd a1 a9 d7 bd
       0.012102534 0.06809045 -0.09842913 -0.10530401
000120 f5 6b ae bd 52 13 22 be bf e3 b6 3d fc fe 08 bd
       -0.08516685 -0.15827683 0.08930158 -0.033446297
000130 b8 c9 dd 3d cb 93 93 3d cf 6d 58 3d 88 45 61 3d
       0.108294904 0.07205924 0.052839097 0.05499795
000140 04 e5 eb 3b 57 0a f9 bd 1b 57 17 bc 67 64 8a bd
       0.0071989316 -0.12160175 -0.009237076 -0.067574315
000150 d1 b2 6c 3d fd c4 4c 3c 6b e2 89 3d e5 30 ca bd
       0.05778772 0.012498138 0.06732639 -0.09872607
000160 79 4a e7 bd 7c 5c 51 bd 84 6b 17 3d 9f 51 f3 bd
       -0.112935014 -0.05111359 0.03696777 -0.11880802
000170 9f 70 ba 3c d9 fd b1 bc f1 7b 74 3d 08 7e 8e 3d
       0.02275878 -0.02172749 0.059688512 0.06957632
000180 8c a5 21 3c a0 0a 60 3d c2 6f 0d be 87 8c 28 bd
       0.00986613 0.054697633 -0.13812163 -0.041149642
000190 fb 88 53 bd 8b 3b 28 3d 11 fe de bb d6 1b b9 3d
       -0.051644307 0.04107241 -0.0068051894 0.090385124
0001a0 ef c1 83 3d 49 ac c2 bd 21 f7 00 be 8b 17 49 3d
       0.06433474 -0.09505517 -0.12594272 0.049094718
0001b0 f1 f9 94 bd cb 9d 4c bd 3e 4a 5e 3c 86 e7 85 3d
       -0.07274235 -0.04995517 0.013567505 0.065383
0001c0 7c 20 16 bd 08 47 02 bd f8 2e 8b bc 8d 75 39 3b
       -0.036652073 -0.031806022 -0.01699017 0.0028298825
0001d0 b4 fe 19 bd 51 0f f6 bc 93 f4 c7 3d 26 58 e2 3d
       -0.03759642 -0.0300366 0.09763446 0.11051969
0001e0 8e c4 30 bd 19 a9 35 bd 17 6e bc bc 08 66 c1 3d
       -0.0431562 -0.044350717 -0.023001714 0.09443289
0001f0 f0 3b e1 3b 19 6d 85 bd 17 44 b6 bc 0e b1 d7 bc
       0.0068736 -0.06514949 -0.022249265 -0.026329543
000200 17 0e 2e bc e3 ad 05 3e 03 91 f1 bc 10 33 ac bb
       -0.0106234765 0.13054614 -0.029488092 -0.0052551106
000210 f2 df 98 3d 72 5d 99 3d 36 54 8a 3b 9b 80 fa bc
       0.07464589 0.074885264 0.0042214645 -0.030578902
000220 46 69 ca bd ee 84 7c bd 6f 3b fc 3d 72 4e 4e bd
       -0.098833606 -0.06165021 0.123160236 -0.05036778
000230 c4 0f f1 3c 55 9b 83 3d 62 4f 4d 3d 80 9c e4 3b
       0.029426463 0.064261116 0.050124533 0.006976664
000240 0e 1b 98 bd 1e 89 94 bc f9 c4 91 3d 8d d7 62 3d
       -0.07427035 -0.018131789 0.07117648 0.055381346
000250 e6 af c8 3d 64 f9 8e 3d df 05 b3 bd b7 b2 9a bd
       0.09799175 0.06981161 -0.08741354 -0.075536184
000260 7a 82 f7 bd 1b bc 56 bd 23 54 f1 bd 02 5d 5b 3d
       -0.12085433 -0.052425485 -0.11783626 0.053555496
000270 c4 18 7c bd e9 72 14 be 2f 17 85 3d df 55 51 3c
       -0.061547056 -0.1449696 0.064985625 0.012776821
000280 52 37 7d bd b8 1f 5e bd cf 9c 05 3e 56 de ae bd
       -0.061820336 -0.054229468 0.13048099 -0.08538501
000290 8b 8a e5 bd 31 d4 ed bd 7d 82 c4 bd 01 40 0a bd
       -0.112080656 -0.11612738 -0.09595201 -0.033752445
0002a0 82 6c 2f 3d 96 93 17 bc 48 d7 11 be 67 b2 cc 3d
       0.04282809 -0.009251496 -0.1424228 0.09994965
0002b0 26 55 0c 3d 96 cb c4 bd 06 13 0a be f4 71 35 3d
       0.03426089 -0.096091434 -0.1348382 0.044298127
0002c0 4f 48 06 be fa 4e 11 bd 51 b3 4d 3d 22 09 d4 bc
       -0.13113521 -0.03547571 0.050219838 -0.025883261
0002d0 e6 3b c7 3c 8d e7 2b 3c d0 a8 15 be 0b 71 17 be
       0.024320554 0.010492218 -0.14615178 -0.14789216
0002e0 d9 37 c9 3c 52 b0 20 ba f0 ee eb bd a2 b4 3c 3b
       0.024562763 -0.00061297894 -0.11520183 0.002879419
0002f0 b9 93 1f be 2d e4 42 bd bb 87 0f be 99 a4 f1 bd
       -0.15583695 -0.047580887 -0.14016621 -0.11798973
000300 05 9b 8b bc a5 98 7a 3c ed 19 98 bb 58 40 53 bd
       -0.017041693 0.015295182 -0.0046417625 -0.051575035
000310 b2 d8 7e 3c b2 aa 8e 3c 41 46 46 bd 00 86 a6 bd
       0.015554594 0.017415378 -0.048406843 -0.08131027
000320 47 d8 9d 3c 73 b8 c2 bd 47 ab ea bc 91 66 9a bd
       0.019268168 -0.09507837 -0.028646125 -0.07539094
000330 a1 c2 ec 3d b7 d5 92 bc 6c 3f 93 bd 28 55 ca 3c
       0.1156056 -0.017924173 -0.07189831 0.024698809
000340 9a a8 16 3c 8b 0c 10 be b9 81 04 bd 8f cc a1 3d
       0.009195471 -0.14067285 -0.032350276 0.079003446
000350 6a e6 b6 3c 2b a9 03 3d 58 2d 3a 3c 9b 9a 8d 3d
       0.022326667 0.032143753 0.01136335 0.06914254
000360 f2 60 e3 bc 41 a9 11 bd 1e 32 46 3c ac 0a ea bd
       -0.027756188 -0.035561804 0.01209691 -0.11427817
000370 a7 5f e7 3d e5 3f 9b bd ae e8 17 3e 7a 3c e3 3d
       0.11297541 -0.07580546 0.14834854 0.11095519
000380 d0 28 9d 3d 6e c7 87 3c 62 c1 61 3c 5c 0a 39 3d
       0.076738 0.016574588 0.013779016 0.045175895
000390 65 6c 9a ba 98 86 e7 3c a9 04 f3 3d fc cb 2b 3d
       -0.0011781572 0.028262421 0.11866123 0.04194258
0003a0 90 6a 96 3c 5f 3e 22 bc 94 8e 3d bd 92 a3 23 be
       0.01836136 -0.009902566 -0.04627855 -0.15980366
0003b0 96 b8 08 be ba 84 15 bd 69 27 5f 3b d8 a3 ac 3d
       -0.13351664 -0.03650353 0.003405059 0.08429688
0003c0 b5 9f a5 bc e1 a5 91 bd 57 b9 46 be 05 86 c2 bc
       -0.020217756 -0.07111717 -0.19406639 -0.023745546
0003d0 9b ad ac bd 68 72 aa bd 5d 2c 1d bd f6 43 f4 3b
       -0.0843155 -0.083226025 -0.038372386 0.0074543906
0003e0 a5 1e 15 be e7 db 66 3d d5 f4 2f bb d7 a2 19 bc
       -0.14562471 0.05636206 -0.0026848812 -0.009377203
0003f0 bc 9b 50 bd 76 00 4a bd 80 30 8c 3d 04 4a b2 bd
       -0.05092977 -0.049316846 0.06845188 -0.087055236

conv1.bias f4 [64]
000000 4f 15 34 3c 3a 20 a3 bb 1e fb cf bc d2 ef 50 be
       0.0109914085 -0.004978207 -0.025388297 -0.20403984
000010 c4 cc 9c bd 51 36 ae bd aa d3 81 ba ec 2e ea bb
       -0.076562434 -0.08506454 -0.0009905 -0.007146707
000020 27 ec cc bd 90 00 b8 3c 2f 81 92 3d be 56 b6 bd
       -0.1000598 0.022461206 0.07153546 -0.089032635
000030 6f 4b 01 3b cc ef 9a bd 12 a8 64 bd ac 3e 89 3e
       0.00197288 -0.07565269 -0.055824347 0.26805627
000040 63 e6 02 be e4 06 bf bd 90 a0 6f bc a8 f1 f3 bd
       -0.12783198 -0.09327486 -0.014625683 -0.11911327
000050 3a 49 db 3e fa 2a b7 bd 04 33 1d 3e d4 69 78 bd
       0.42829305 -0.08943744 0.15351492 -0.0606478
000060 1b af 9b bd c0 75 85 bc cd 5a 4d bd 8c 59 18 bd
       -0.07601758 -0.0162915 -0.050135422 -0.037194774
000070 7d 03 b4 bd 52 3a ae bd 95 1f 79 bc 0b 9e dc bd
       -0.08789728 -0.085072175 -0.015205284 -0.10772332
000080 1f e6 74 bc 30 0a cd 3e 0e 0d 0d be 32 af cf bd
       -0.014947443 0.40046835 -0.13774511 -0.10140838
000090 1b 21 6c bd da 61 d0 bc 67 57 c9 bd 4a 49 f2 bc
       -0.05764876 -0.025437284 -0.09831124 -0.029575963
0000a0 75 8e 64 bc bd 59 92 3b 7c a8 9f bc 18 13 af 3e
       -0.01394998 0.004466264 -0.01948952 0.34194255
0000b0 2d 53 3c be 62 9d 96 bc 45 5b d9 bd 26 2e 06 3f
       -0.18391104 -0.018385593 -0.106131114 0.52414167
0000c0 db 18 02 3f af 83 d1 bc d9 d3 5a 3e a3 6d fd bc
       0.50819176 -0.025575487 0.21369876 -0.030936068
0000d0 0d db 2e bd 94 45 a6 bd b3 68 a7 3e 32 f2 a0 bd
       -0.04268937 -0.0811874 0.32697067 -0.07858695
0000e0 8a 08 61 bd 96 33 86 bd e0 e0 75 bd 01 fa 21 bd
       -0.054939784 -0.06552808 -0.06002891 -0.039545063
0000f0 7f a5 ea bd 86 62 80 bd 0b 46 a4 bd 04 bc 72 bd
       -0.11457347 -0.06268792 -0.08021172 -0.059261337

conv2.weight f4 [32, 64, 1, 1]
000000 14 8e 91 bd 23 37 d6 3d 03 09 71 bc 12 d6 ac be
       -0.071071774 0.10459735 -0.014711621 -0.33757073
000010 98 5b 65 bd 0d dd a2 bd 99 b9 ed bd 02 58 29 3c
       -0.055995554 -0.07952318 -0.116076656 0.010335924
000020 66 a9 ef bd 8f c3 c5 bc b7 65 f3 bd db 8d ad 3d
       -0.11702232 -0.024141101 -0.11884635 0.084743224
000030 0a 83 4c 3d 69 9a ec bd 62 ae 82 3d af 57 d6 bc
       0.049929656 -0.11552889 0.06380917 -0.026164858
000040 b4 1e b5 bd b0 58 a8 3d c7 19 00 bd b5 4c b9 bd
       -0.08843747 0.08220041 -0.031274583 -0.09047834
000050 a5 c1 79 bd e2 14 f7 bd 42 68 37 be dd 5d ac 3d
       -0.06097569 -0.1206453 -0.17910865 0.084163405
000060 f0 cb 26 bd 1b 75 42 bc 89 d0 ae bc 4a 2e 20 be
       -0.040721834 -0.01186874 -0.021339672 -0.15642658
000070 20 c2 cd bd 44 17 ad bd 42 d0 16 3d 28 e2 03 3d
       -0.10046792 -0.08451703 0.036819704 0.0321981
000080 ec f6 9e 3d 48 97 f5 bd af 57 93 bd 56 8b f8 bc
       0.0776194 -0.11991745 -0.07194459 -0.030339878
000090 86 9d 97 bd 60 5e c6 3c f0 48 12 3d fc 68 08 bd
       -0.07403092 0.024214923 0.03571409 -0.033303246
0000a0 ff 69 55 bd 18 35 7a bd c6 12 7c 3d 41 27 15 bf
       -0.05210304 -0.06108579 0.06154134 -0.5826302
0000b0 65 e0 9c bd da 8d 46 3d 9f f5 c2 bd 75 7f 20 be
       -0.07659987 0.048475124 -0.09519505 -0.15673621
0000c0 f7 a4 25 bd 56 d4 3c 3d 8c 27 33 3c 59 a1 62 3c
       -0.040440526 0.046100937 0.010934722 0.013832414
0000d0 bc 43 b5 3d c4 c5 d7 3d b3 3c 7d bd ca 23 2b be
       0.0885081 0.10535768 -0.061825465 -0.16712871
0000e0 2d bf ea bd 68 86 c3 bd 25 6f 85 bd 19 32 b2 bd
       -0.11462245 -0.0954712 -0.0651534 -0.087009616
0000f0 46 aa 11 3d 84 9b b1 bd 22 74 a7 bd 30 5c 46 3d
       0.035562776 -0.086722404 -0.081764475 0.04842776
000100 8e b7 2a 3e 81 5a 1a 3c ba e3 ba bd 0d 66 76 bb
       0.16671583 0.009420992 -0.09125467 -0.0037597448
000110 b2 46 e7 bd 49 d1 75 bd 38 4b 08 be cc e6 3f 3c
       -0.11292781 -0.060014043 -0.13309944 0.011712741
000120 a0 0e 5e bc a6 c4 34 3a 04 d2 9d 3c a1 18 a4 3d
       -0.013553292 0.0006895758 0.019265182 0.0801251
000130 c8 a8 ae 3e d0 69 07 be 2e aa a6 bd 9a 78 3c bb
       0.34113145 -0.13223958 -0.08137928 -0.0028758408
000140 48 be 2c 3c 54 36 82 3d 74 21 cf bd 1e 4a 7d 3c
       0.010543413 0.063580185 -0.101138026 0.015459565
000150 c6 1b e7 bb b3 5d a8 bd 0e d6 55 bd 64 f6 80 bd
       -0.0070528714 -0.08220997 -0.05220609 -0.06296995
000160 14 ac 58 3d 61 85 ec 3c 2a 4d c1 bd 73 03 78 ba
       0.05289848 0.028872194 -0.09438546 -0.0009460963
000170 38 bb d5 bc c5 d7 aa bd 1b 20 dd bd 8a 23 e0 3d
       -0.02609025 -0.08341936 -0.10797139 0.109442785
000180 b4 71 91 3d bd 53 b9 bb 27 f6 ba bd 32 c8 b1 3d
       0.07101765 -0.0056557343 -0.09128981 0.08680762
000190 20 a9 fc bd 61 03 a6 3d ec 92 b8 bd 47 2c 59 bd
       -0.123369455 0.08106113 -0.09012398 -0.05302074
0001a0 42 2a 82 3d 52 2d 18 3e 1e dd 78 bd a7 0e 97 bc
       0.06355716 0.14861038 -0.06075775 -0.018439604
0001b0 5d ed 22 bd f3 ce 5c 3d 88 b4 18 bb 38 91 d6 3b
       -0.03977715 0.0539083 -0.0023300964 0.006548073
0001c0 ed c1 68 3c 5f 6d b2 bc e4 68 b5 b9 2d eb 9e 3b
       0.014206392 -0.021780668 -0.0003460116 0.0048498125
0001d0 81 b9 80 bb 18 7a b7 3c d8 d5 df ba 1e dc 85 bc
       -0.003928364 0.022397086 -0.001707728 -0.016340312
0001e0 c3 70 93 bc 5e 6d 81 bc d2 b5 e7 bd c5 bf f3 3d
       -0.017998105 -0.01579922 -0.11313976 0.119018115
0001f0 eb 11 76 3c 4b ea ac 3c ef 68 a9 bd 08 5c ae bc
       0.01501892 0.021107813 -0.082719676 -0.021284118
000200 fb 74 01 3c dc 8b 82 bd e6 49 b9 3d a8 77 45 c0
       0.0079014255 -0.06374332 0.09047298 -3.0854282
000210 90 12 14 3c 4a db 2c 3b 4b c0 6d bb 99 97 fd 3d
       0.009037629 0.0026375824 -0.0036277946 0.123824306
000220 30 58 e1 bd 3d 4e d1 bd 74 6c 17 bd d5 28 b0 3d
       -0.110031486 -0.10220001 -0.036968663 0.08601538
000230 b7 61 c9 bf 6d c4 bc 3d 3c d8 9d bd 4c 9b 7a bf
       -1.5732945 0.09217153 -0.07707259 -0.97893214
000240 4d c4 5c bd ea be 90 3d 02 9e f9 3d 99 3e ea 3d
       -0.053898145 0.07067664 0.12188341 0.11437721
000250 6e 38 99 bf a0 44 8a bd 20 2f 14 c0 ff 94 97 3d
       -1.1970346 -0.067513704 -2.3153763 0.074014656
000260 9a 4f 8e 3d 40 a8 66 3c 4e fb 2e 3d 0e 4e a4 bc
       0.069487765 0.0140782 0.04272013 -0.02005675
000270 80 ae 76 3d 19 09 ed bd 24 5c aa bd 78 58 01 bd
       0.06022501 -0.11574001 -0.08318356 -0.03157851
000280 12 63 0e 3c 68 15 33 c0 7c 66 dc bc c5 c3 55 bd
       0.008690612 -2.7981815 -0.026904337 -0.052188653
000290 1c d9 38 bd 74 d5 33 3c ea 5c 9d 3d f6 5c 2c 3d
       -0.045128927 0.010976184 0.076837376 0.042080842
0002a0 02 59 c2 bd 90 26 71 3c 9d aa 97 3c 6d 1f f4 be
       -0.09489633 0.014718667 0.018513972 -0.47680226
0002b0 10 15 0a c0 22 fe 3c 3d b9 35 a6 3d fe 31 80 c0
       -2.1575356 0.046140797 0.081157155 -4.0061026
0002c0 35 ec 84 bf 0f d2 74 3d 46 a9 12 bf 03 f8 96 3b
       -1.0384585 0.05977064 -0.5728954 0.004607202
0002d0 11 e1 86 3d 30 38 2f bd f2 54 9d c0 f1 51 9e 3d
       0.06585897 -0.042778194 -4.9166193 0.07730473
0002e0 08 a3 9f bd ef 68 a5 bc 22 b2 19 be 2e e0 dd 3d
       -0.077947676 -0.020191638 -0.15009359 0.108337745
0002f0 62 5d 26 3d ed 40 7a 3d 08 a0 e4 bd 1c f0 15 3d
       0.0406164 0.061097074 -0.11163336 0.03660594
000300 15 20 6e bd aa 1d a3 bc 5b a7 cb 3c 01 51 4b 3e
       -0.058136065 -0.019911606 0.024860075 0.1985512
000310 44 61 ba 3d c4 6a 64 3d 6c 40 1a 3d a1 b3 c2 bd
       0.09100583 0.055765882 0.037659094 -0.09506918
000320 14 ab 95 bd d3 32 26 bd cf e3 87 3c e9 4b e0 3d
       -0.07308021 -0.040575814 0.01658812 0.10951979
000330 db c0 b5 c0 6c 7b cf 3d f4 c5 67 3d 98 bd 0d be
       -5.679792 0.10130963 0.056585267 -0.13841856
000340 21 53 7f 3d 20 d2 62 3d d8 d1 9b bd d7 e6 b2 3d
       0.062335137 0.055376172 -0.07608384 0.087354355
000350 89 dd 16 be df 26 e4 bd 4c 93 fa bd 15 dd ef 3c
       -0.14732946 -0.111402266 -0.12235126 0.029280225
000360 60 ff f9 bd c8 dd 0c 3e 2b c2 5c 3d 05 28 dc bd
       -0.12206912 0.13756478 0.05389611 -0.107498206
000370 36 39 8a 3d 66 d9 48 bd bf b8 b0 3d cc 0b 53 bd
       0.06749193 -0.049035452 0.086289875 -0.051524922
000380 90 1d ad bd 31 bb 07 bd 76 e6 9e 3d 1a 02 a1 3d
       -0.08452904 -0.033137504 0.07758801 0.07861729
000390 06 c2 f8 bd 9a e0 e8 bb 24 3e 6c bd 36 5a f0 3c
       -0.12146382 -0.0071068527 -0.05767645 0.02933989
0003a0 21 24 82 3d cb 04 cb bd 39 76 46 bd 05 7a 44 bd
       0.06354547 -0.099130236 -0.04845259 -0.04796793
0003b0 a6 f8 4c 3e f3 e6 63 3d 82 6c a4 bd 7e cd 83 bd
       0.20016727 0.055640172 -0.08028509 -0.06435679
0003c0 22 de e2 be 28 f3 39 3d fd 9c c1 be 14 3e 93 bd
       -0.443101 0.045397907 -0.37815085 -0.07189575
0003d0 ec 44 94 bd 00 cd 82 3d 73 26 54 bd 49 17 d2 3d
       -0.07239708 0.06386757 -0.05179448 0.102583475
0003e0 ce bc c3 bd 67 73 8c bd 01 d5 4e 3d 7b a3 66 bd
       -0.09557496 -0.06857949 0.050496105 -0.05630825
0003f0 e6 fb ae bd 45 8e cc bd 60 85 86 3d 70 d2 0e 3d
       -0.085441396 -0.09988073 0.06568408 0.034868658

conv2.bias f4 [32]
000000 c3 84 11 be ad f4 03 bd 6a 2f 63 3d bf c6 f2 3d
       -0.14210801 -0.032215763 0.05546514 0.11854314
000010 b3 84 48 bd 98 f0 2d be cb dd 25 be 12 3a 7d bd
       -0.048954677 -0.1698631 -0.16197889 -0.06182296
000020 08 90 99 be 32 b6 48 be c4 b3 a3 bd 8b ef 37 be
       -0.299927 -0.19600752 -0.07993272 -0.17962472
000030 ac 64 9f bc 1a 0b 91 be 30 51 9e 3c da 75 a2 bd
       -0.019457184 -0.28328782 0.019325823 -0.07932635
000040 24 0a 08 3e d9 72 50 bd e3 fa 77 bd 95 90 b6 bd
       0.13285118 -0.050890777 -0.060542 -0.089142956
000050 8a b2 e2 bd 88 d0 a8 bd 94 1a 4c be bf 51 19 be
       -0.1106921 -0.08242899 -0.19932014 -0.1497259
000060 b9 a5 ee bd 8f a8 9d ba ab 8d 52 bc ce 9a 67 be
       -0.11652703 -0.0012028384 -0.012851159 -0.22617647
000070 e3 cd 98 be 8e d7 2b be bc 80 48 be 93 fe b5 be
       -0.2984458 -0.16781446 -0.19580358 -0.35545787

conv3.weight f4 [1, 32, 5, 5]
000000 16 eb 6c 3d 3e d3 11 3d 2a ec de 3c 7d 4d 9b 3c
       0.057841383 0.035601847 0.027212221 0.018957848
000010 a1 95 8a 3c 65 87 53 3d 4f b7 be ba 36 19 72 bc
       0.016917052 0.051642794 -0.001455048 -0.014776519
000020 2a 2b 08 bd 2f e3 e8 bc 5d 80 69 3d 74 ec 46 3b
       -0.03324429 -0.028428642 0.057007182 0.003035334
000030 90 b2 e5 bc a1 ce 5e bd 9b 4a 4b bd d1 81 8d 3d
       -0.028039247 -0.054396275 -0.049631696 0.06909526
000040 37 bf bc 3c 7f 41 63 bc 29 d4 3a bd fc c2 3f bd
       0.023040397 -0.013870596 -0.045612488 -0.04681681
000050 68 46 99 3d 3c 6f 39 3d 67 2e bc 3c ed 91 11 bc
       0.07484132 0.045272097 0.022971345 -0.008884889
000060 d0 08 8c bc 30 a0 38 3d 9b ec 59 3d 45 a3 91 bc
       -0.017094046 0.04507464 0.05320416 -0.017778048
000070 c5 02 61 bc 0f 9b 36 bd a0 9b b6 3d df e2 1c 3e
       -0.01373357 -0.04458147 0.08916402 0.1532092
000080 dd c0 dc 3d 47 56 fa 3d 28 7e 86 3d 69 1b ad 3c
       0.10778973 0.12223487 0.06567031 0.021131234
000090 a9 4c f2 3d d4 6d c7 3d 94 21 03 3e 2c be 9d 3d
       0.11831028 0.09737745 0.12805778 0.07702288
0000a0 9b ff 39 3b 82 36 f3 3d ee 21 ed 3d 9b 87 2b 3e
       0.0028381112 0.11875631 0.11578737 0.16750948
0000b0 4d 91 09 3e be 5c 1c bd 5b 33 90 3d 0b f5 a4 3d
       0.13434334 -0.038174383 0.07041045 0.08054551
0000c0 2a 49 1c 3e 93 23 1b 3e 28 0b 66 3d fc 27 0f 3d
       0.15262285 0.15150289 0.056162983 0.03495024
0000d0 92 c2 8e bd ae 35 8f bd 71 49 b3 bd 58 3d fd 3d
       -0.06970705 -0.069926605 -0.08754242 0.12365216
0000e0 53 28 29 3e d5 0d a1 3d d2 01 a6 3d 65 97 b8 3c
       0.16519289 0.078639664 0.08105816 0.022533128
0000f0 e8 e5 73 3d 68 83 12 3e 25 6b ae 3d 99 fe c5 3d
       0.059545428 0.1430794 0.0851653 0.09667701
000100 e9 52 ff 3c 2e 5c 51 3d 95 7f 2c 3e 95 7c 0f 3e
       0.031167464 0.0511133 0.16845544 0.14012368
000110 37 cd 34 3e 37 a4 f6 3d e1 c1 bc 3b 29 83 02 3e
       0.17656408 0.1204304 0.005760417 0.12745346
000120 c0 71 03 3e 41 6d 4b 3e b1 88 37 3e 75 e0 26 3d
       0.12836361 0.19865896 0.17923237 0.040741403
000130 b9 58 3b 3d 03 99 62 bc 35 76 12 bc 91 e6 04 bd
       0.04573891 -0.013830426 -0.008939316 -0.032446448
000140 48 78 9d 3d 22 48 01 3e b4 02 b1 3d 6b 52 cc 3d
       0.076889575 0.12625173 0.08643094 0.099766575
000150 7d 73 65 3d 07 8f ae 3c a0 e6 c5 3d fc 5a 9a 3d
       0.05601834 0.021308435 0.09663129 0.07536885
000160 00 c7 cf 3d b3 ae 7f 3d 52 9d 10 3c 00 6a cc 3d
       0.10145378 0.062422466 0.008826571 0.099811554
000170 97 08 bd 3d 14 96 09 3e 60 ae df 3d 7a cd b5 bc
       0.09230154 0.13436157 0.10921931 -0.022192705
000180 2f 35 83 3d e5 8e 8a 3d 5a 91 00 3e 24 3e 00 3e
       0.06406628 0.06765536 0.12555447 0.12523705
000190 2a 75 13 3d 11 c6 2a 3d c0 f0 5c bc 58 30 0c bc
       0.03600041 0.041692797 -0.013485134 -0.008556448
0001a0 6f b5 00 bd 2b a9 90 3d 09 52 f3 3d 7e e1 a9 3d
       -0.03142303 0.07063516 0.11880881 0.08294962
0001b0 89 6f c5 3d d4 11 5e 3d 58 4c 92 3c 4f 66 b9 3d
       0.09640414 0.05421622 0.01785867 0.09052717
0001c0 8e 93 94 3d 46 1e ca 3d 2c 0f 7c 3d 01 f2 c5 3b
       0.07254706 0.098690554 0.061537907 0.006040812
0001d0 a5 8e bd 3d 33 26 b2 3d 81 e1 03 3e fa d7 d8 3d
       0.09255723 0.08698692 0.12878992 0.10588069
0001e0 46 b4 ba bc c5 2d 6e 3d 34 1b 7d 3d d1 2d f2 3d
       -0.02279104 0.058149118 0.06179352 0.11825145
0001f0 32 6c f5 3d b6 c4 bd bc 46 32 04 3c 2f 77 c8 3c
       0.11983527 -0.023165088 0.008068627 0.024470894
000200 96 5b 46 3d 22 71 95 3d fb 4c da 3a 56 9f 02 3b
       0.048427187 0.07296969 0.0016655022 0.0019931397
000210 59 db 55 3b 73 79 64 3d 80 c4 86 3d f3 b9 33 bd
       0.0032631962 0.055779886 0.06580448 -0.043878507
000220 f3 59 20 bd 9a 8c cc 3c 81 24 21 3c 4d e5 dd 3b
       -0.039148282 0.024969388 0.009835363 0.0067717195
000230 08 24 ec bc 4a e8 48 bc fb f6 0e bd 1d b4 ee bc
       -0.028825775 -0.012262413 -0.034903508 -0.02913862
000240 18 8a 51 bc 4d 86 5b bd ae 3c bd bc 55 5e 3d bc
       -0.012789272 -0.053594876 -0.023100223 -0.011558135
000250 9d 91 82 bc 3f 02 c2 b8 41 68 b2 bc af 37 97 bc
       -0.015938574 -9.251059e-05 -0.021778228 -0.01845917
000260 5b 8d 04 bd a8 c6 81 bd 52 18 89 bd 8b 42 00 3c
       -0.03236137 -0.06336719 -0.06694092 0.007828365
000270 47 8e c4 3a 9c 76 cc bc af 37 98 bd 16 4a d0 bd
       0.0014996015 -0.024958901 -0.07432496 -0.10170381
000280 b4 a0 38 3d de f9 1b 3d 8a 61 41 3c ec cb 32 bd
       0.045075133 0.03808009 0.01180304 -0.043651506
000290 4e 87 b4 bd 8d c1 91 3d 7b 7c 8c 3d 33 85 2c 3d
       -0.0881487 0.07116995 0.0685968 0.042119216
0002a0 ce 02 63 bc 6a 7a 8d bd 1c dd 7e 3d da 6a 98 3d
       -0.013855649 -0.06908114 0.062222585 0.07442255
0002b0 16 b5 70 3d 8e d9 73 3c 31 7c 0e bd 00 08 59 bd
       0.058766447 0.014883412 -0.034786407 -0.052986145
0002c0 dd ee 66 bc 06 60 ca bc cd 3c bb bc 04 be 34 bd
       -0.014095035 -0.02470399 -0.02285614 -0.044126526
0002d0 c1 1b 00 bd 8b 19 5b 3c 92 5e a0 3c 5e 84 0e 3d
       -0.03127647 0.013372789 0.019576345 0.034794204
0002e0 92 c6 70 3c c7 47 9c bd f4 89 99 bc b1 0b f6 3b
       0.01469578 -0.07630878 -0.018742539 0.007508718
0002f0 4b 01 d2 3c 4d 3b 8c 3c ee 76 c2 bd ee 0f b8 bc
       0.025635382 0.01711812 -0.0949534 -0.022468533
000300 63 96 19 bc 06 04 c6 3c e6 ec ed 3c 4c 07 eb bd
       -0.009374234 0.02417184 0.029043626 -0.11476001
000310 16 91 8b bd 06 e2 16 bd 2b 30 be bb c8 75 8e 3c
       -0.06814782 -0.036836646 -0.005804082 0.017390147
000320 1e 4c 18 bd 94 3b 03 bd 06 0d df bb c9 4b 96 bb
       -0.037181966 -0.03203924 -0.0068069724 -0.004586671
000330 91 14 a0 b9 cc 6a f7 bc 04 a6 0a bd a7 17 4b bc
       -0.000305329 -0.030202292 -0.03384973 -0.012395776
000340 ad 89 4e bc df e0 29 bc 36 c9 e3 bb e3 76 8d bc
       -0.012606067 -0.010368555 -0.0069514764 -0.017268604
000350 04 fd 39 bb 75 b2 a8 bb be 56 aa bb db 33 ae bb
       -0.0028379569 -0.005148227 -0.0051983288 -0.0053162402
000360 27 0b c3 bc 5c 2a 97 bc e8 e4 d2 bc 4a 9a d3 bc
       -0.023809029 -0.018452816 -0.025743917 -0.025830407
000370 b1 e6 69 bb d0 ab d3 bc 7a b3 f4 bc 45 8b 33 bd
       -0.0035690481 -0.025838763 -0.029870737 -0.04383399
000380 4f 8a 3b bd 6e c8 96 3c 27 2e 83 3b eb 2d a6 bb
       -0.0457862 0.01840612 0.0040033045 -0.005071392
000390 30 54 02 bc 50 24 c9 3a 00 3d 3b 3d 77 cb 51 3c
       -0.007954642 0.0015345905 0.04571247 0.012804857
0003a0 f8 0b 99 bb 2b 3a c5 bc b2 3c eb bc d8 32 8f 3d
       -0.0046706162 -0.024075588 -0.028715465 0.069921196
0003b0 c1 36 18 3d 74 a2 0d 3c f2 fe 89 bc 7c 25 03 bd
       0.037161592 0.008644689 -0.0168452 -0.03201817
0003c0 b6 5f bf 3d 1b df 83 3d 5d ad 03 3d a8 b9 2c 3b
       0.09344427 0.06439038 0.032147754 0.0026355777
0003d0 d6 a1 96 bc 37 77 e0 3d bf 73 c0 3d 6e e6 86 3d
       -0.018387716 0.109602384 0.09397077 0.0658692
0003e0 60 61 16 3d e7 d5 b6 3b 47 c1 f6 bb 8d fb 17 3c
       0.036713958 0.0055796984 -0.0075303647 0.009276283
0003f0 9a 0a 76 3c 9f 42 75 3c a0 b6 c8 3c 23 f0 be bc
       0.015017176 0.014969497 0.024501145 -0.023307865
