pretrained_models/less_downsampling_250epochs.pth (torch, 34839 bytes, 5 tensors)

conv1.weight f4 [64, 1, 9, 9]
00000000: 6fb9 a3bc 7217 1c3e c518 473e bfea 23be
00000010: 8146 9abe 0caf 81be fe48 57bd 214e 443e
00000020: 0aab 9cbe eda5 773e 4371 803e 84d0 093f
00000030: d9ca 893e 262e 8e3d ec62 4f3e b3bf e63e
00000040: f928 4b3f d85b 66be 725e 433e ae13 7b3c
00000050: bbd4 0d3e 39e3 543c 70e2 e8be 0308 17bf
00000060: 14d7 3bbe 00de c83e f255 90be b455 19be
00000070: c5d1 61bd 3857 dbbb c51d 8cbd 18a1 27bf
00000080: 6841 54bf 9465 e3be b3d4 fd3d af59 93be
00000090: 5843 a6be 21f4 7dbd 30c2 833d 6944 723d
000000a0: e22a 2fbf aed2 31bf ed78 1cbf 873a b13c
000000b0: 3f10 12bf 34f6 a1be 0456 c2bd 7ce7 b13e
000000c0: 6a6f cf3e 86d9 9abe 8da2 7abe 45d2 0abe
000000d0: 351a 963e 0ec7 8fbe e665 a53e ce59 033f
000000e0: ea2a 683f 10c9 6d3f 2e34 fc3e dbe2 e73e
000000f0: 59e6 ec3e e2a4 3c3f a3fb b03e 795b 093d
00000100: 3741 e63d 7f8b 143e 9cea 85be 93ea 25bf
00000110: a727 24bf 26bb c0be ed2d 59be 551f 10bd
00000120: e163 b7bd c4d9 97be e1b7 1fbe 8cb5 dabe
00000130: 2397 d9be 020f acbd d819 173e 0933 b73e
00000140: 7eac 493e e308 243f 83d7 a3bb de44 26be
00000150: e617 053e 2e21 b43e 908a 7b3d 5c27 e83d
00000160: b6c7 91be eda1 da3d b032 313f 4488 3cbf
00000170: d951 47bf cb5b 07bc 1d1e 793e bbaf c3bb
00000180: 95d9 3cbe c1c8 9fbe 94a8 51be a0c7 9e3f
00000190: e972 67bf cefb 75bf 5181 9f3e 096c f63e
000001a0: cc9c d83d cfa2 963d 49a2 96be 2043 d8bd
000001b0: 3e3d a33f 441c 6fbf 6b86 86bf 225b 463e
000001c0: b380 333f b3ed c03e ea10 833e bbd8 2abe
000001d0: 4dad 79bd 93f9 a33f 6cbb 8abf 8c1a 8dbf
000001e0: f79a b73d 5285 3b3f 04ff 223f 9ed6 b33e
000001f0: 12ef 87bd 2775 1f3e 7a11 693f 5edf 7abf
00000200: f0d6 93bf 1663 e7bd f5dc 2c3f 95a3 2a3f
00000210: d8f4 cf3e 4a29 be3d d286 273e e748 393f
00000220: 6e92 e3be fae0 82bf e417 c0be fd27 6a3e
00000230: b36f 343e 04aa 253e 1582 9cbe 7476 b83e
00000240: 67fa ed3d 5df5 a2bd 57f2 0fbf e75a 28bf
00000250: 9b15 c3be c193 12be 70fc 2ebe 3e1b 1dbf
00000260: c193 873e 1819 85be 0dc2 0e3f af39 0e3f
00000270: 77bf 023e 62da 773d 225b a63d fa04 d03d
00000280: 29fc 03bf b87d c13d 4803 3b3d b57e a0bb
00000290: 8d34 2bbd bedf 2bbe 417c 83be 686e fabd
000002a0: c452 85be e813 c7bd 264e 2fbe d334 263c
000002b0: 70b1 0abe 13d6 d9bb c5bf d93d 8e65 1c3e
000002c0: 8652 133e e355 223c ea9a 463e 530e a73b
000002d0: 89b7 79bd 2b99 38be 59a7 c7bd af6e 0abd
000002e0: dd11 18be 114f c1bd b794 623d a000 033e
000002f0: 4b3e 39be 4bd0 72bd c591 3dbe 0548 d7bd
00000300: 6ee9 0b3d 442d ecbd 3bfc eabd 38d0 9bbd
00000310: 96b7 b23d 586c 26be d4ed 13be 9f36 26bd
00000320: 77b1 10bd db48 cf3c 5763 eabd ac67 a4bd
00000330: 0287 83be a701 fe3c 2a2a 76be f8df 77be
00000340: a91a c6bc 9a2a 66bd d1ec 5b3e 7647 603e
00000350: 9c44 1b3e 160d 01be ad0d ea3d ccec 723c
00000360: 4056 c2bc 13fa 88bc 0c9c 143e 148e 563e
00000370: 35d3 183e e6aa b33d 9fa5 d2bd 93f2 58bc
00000380: 3b3d 8839 5455 dfbb 7db3 f93c dedf ddbc
00000390: 7e13 36be 0d2c 39be 3b32 aebd 99fa 81be
000003a0: f263 51be ddf9 943d ddef 3ebe 444b e5bd
000003b0: 9f03 64be 7f67 1fbe be51 67be fbc6 e63c
000003c0: 16fa ec3d bb77 10bd 8cd2 543e 15d0 3cbb
000003d0: 1a13 3ebc 4562 fe3c ab13 583c 9c3e e8bd
000003e0: 70bc 7b3d 8409 3c3d fa1e 78bd 5897 85bd
000003f0: 3492 f1bd 09ac d5bd d963 d8bd f9c0 9a3c
-0.019985883 0.15243319 0.19443043 -0.16007517 -0.30131915 -0.25328863 -0.052559845 0.19170429
-0.30599242 0.2418439 0.25086412 0.53833795 0.26912573 0.06942396 0.2025258 0.4506813
0.79359394 -0.22495973 0.19078997 0.015324516 0.13850681 0.012993627 -0.45485258 -0.589966
-0.18343765 0.39231873 -0.2819057 -0.149741 -0.055131692 -0.006693747 -0.068416156 -0.65480185
-0.829123 -0.44413435 0.12394085 -0.2877936 -0.32473254 -0.062000398 0.06433523 0.059147272
-0.6842481 -0.69462097 -0.6112202 0.021634353 -0.5705604 -0.3163315 -0.094890624 0.3474692
0.4051469 -0.30244082 -0.2447607 -0.13556774 0.2931687 -0.28081554 0.32304305 0.51308906
0.9069048 0.9288492 0.4925856 0.45290264 0.4626949 0.7368909 0.34566984 0.0335345
0.112429075 0.14506339 -0.26155555 -0.64811057 -0.64123005 -0.37642783 -0.21208926 -0.03518613
-0.08954597 -0.2965833 -0.15597488 -0.42716634 -0.4249812 -0.084013 0.14755952 0.35781124
0.19694707 0.6407606 -0.0050000562 -0.16237208 0.12997398 0.35181564 0.06141144 0.11335632
-0.2847268 0.10675416 0.6921797 -0.73645425 -0.77859265 -0.008261631 0.24327894 -0.0059718764
-0.18442376 -0.3120785 -0.20474464 1.2404671 -0.90409714 -0.9608735 0.31153348 0.481293
0.10576782 0.07355272 -0.2942069 -0.10559678 1.2753065 -0.93402505 -1.0509771 0.19370702
0.70118254 0.3768135 0.25598842 -0.16684239 -0.060956288 1.2810539 -1.0838447 -1.1023726
0.08965104 0.73250306 0.6367037 0.35124677 -0.06637396 0.15572034 0.9104229 -0.9799708
-1.1549969 -0.11298196 0.67524654 0.66655856 0.40616488 0.09285219 0.16360024 0.72376865
-0.44447654 -1.0224907 -0.37518227 0.22866817 0.17620735 0.16178137 -0.30567995 0.36027873
0.11620026 -0.079569556 -0.56229156 -0.65763706 -0.3810242 -0.14314176 -0.17088485 -0.61369693
0.26479915 -0.25995708 0.5576485 0.5555677 0.1276835 0.060511 0.08122851 0.10157199
-0.5155664 0.09447807 0.045657426 -0.004897917 -0.041798163 -0.1678457 -0.25680736 -0.122280896
-0.26039708 -0.09720594 -0.17119655 0.01014443 -0.1354425 -0.006647834 0.1063228 0.15273115
0.14386949 0.009908172 0.19395033 0.005098143 -0.06096605 -0.18027179 -0.09748716 -0.033796962
-0.14850564 -0.09438909 0.055317607 0.12793207 -0.18090169 -0.059280675 -0.18512638 -0.105117835
0.034158163 -0.11532071 -0.114738904 -0.07608074 0.087264225 -0.16252267 -0.14446193 -0.040579434
-0.035325494 0.025303295 -0.11444729 -0.08027586 -0.2568894 0.031006647 -0.24039522 -0.24206531
-0.024182634 -0.05619297 0.21477057 0.2190226 0.15162891 -0.12602648 0.1142839 0.014826965
-0.023722768 -0.016720807 0.14512652 0.20952636 0.14924319 0.08772831 -0.10285496 -0.013241428
0.00025985562 -0.006815592 0.030481094 -0.027084287 -0.17780873 -0.1808321 -0.085056745 -0.25386503
-0.20448282 0.0727422 -0.18646188 -0.111959964 -0.22267006 -0.15566824 -0.22589776 0.028171053
0.115711376 -0.035270434 0.20783442 -0.002881055 -0.011601234 0.031052718 0.013188283 -0.11340067
0.061459005 0.045907512 -0.060576417 -0.06523007 -0.11795464 -0.10433204 -0.105659194 0.018890845

conv1.bias f4 [64]
00000000: a191 da3d d646 13bf e509 183c d797 07bd
00000010: 3823 4c3c b455 b9bd 0a84 023e 90c8 dabd
00000020: 8f27 9abd 8ce8 213b 88f5 743e 3ed3 c3bd
00000030: d94b bbbd 84dd 00bd 297a 9a3e 5678 9eb9
00000040: 980b 17bd 708e d8bd 328d b2bd fd3d d53d
00000050: 4760 9dbd 50cc 1ebf 50ff c73e 7a9f f53d
00000060: 87b0 adbd edb8 13bf d40a 86bc fee6 01be
00000070: aea6 8fbc b686 2bbc af64 98bc 4697 45be
00000080: 2fed 23be a546 34bd 7b83 fb3c f410 d139
00000090: 1939 e2bd d146 60bd b6ff 27bd b3e1 77bd
000000a0: 49c8 debd a696 90bd 9f3d bebd 3bec 24bd
000000b0: 9b12 ecbd 9a43 acbd c9dd 4dbc 5a99 3dbd
000000c0: 350e 61bd 486f 17bd a0e6 d4ba 12dc 37bc
000000d0: 87c4 133d 821c 1cbd 7daa 88be f38e 1d3c
000000e0: a6b6 ea3e b7d6 8d3c c0a8 a23e 9b9f 3d3c
000000f0: 7e52 bdbb ab9d 143d 2248 923c d90e 0fbd
0.10672308 -0.5752996 0.009279703 -0.03310379 0.012459569 -0.0904955 0.12745681 -0.106827855
-0.075270765 0.002470526 0.23921788 -0.095617756 -0.09145326 -0.031461254 0.30171326 -0.00030225766
-0.03687629 -0.10574043 -0.08718337 0.10412214 -0.07684379 -0.62030506 0.39061975 0.11993308
-0.084809355 -0.5770405 -0.016362585 -0.12685773 -0.017535534 -0.010469129 -0.018602697 -0.19295987
-0.16008447 -0.044012684 0.030702343 0.00039876217 -0.11046047 -0.054755036 -0.04101535 -0.060517978
-0.10878045 -0.07059984 -0.09289097 -0.04026435 -0.11526986 -0.084113315 -0.012565085 -0.046288826
-0.05494519 -0.03697136 -0.0016243048 -0.011221902 0.036076095 -0.038113125 -0.26692572 0.009616601
0.45842475 0.017314298 0.3176937 0.011573697 -0.005777656 0.036283176 0.017856661 -0.03492627

conv2.weight f4 [32, 64, 1, 1]
00000000: fd9d b93e 0627 303e f362 163e b137 683d
00000010: 7546 0e3d ffed a73d 092a f2be c344 b93c
00000020: 173d 86bd b377 5f3d 6c06 d1bd 7da9 20bc
00000030: 567c 5bbc ec77 7fbd 4228 cc3c e21b 8a3d
00000040: 6d51 88bd dded 3c3e f4c7 19be 3588 86bd
00000050: c00a 8abb 8c58 f8be 141d cabd da30 eabe
00000060: 98f4 4eba 15cb 84be 79b0 933d 2f90 1c3c
00000070: 51d8 983e 5876 3bbe 8802 483d 88c9 dc3d
00000080: 9acd d8be 1dff 693d 34f6 173e c0f3 d63d
00000090: b633 833c 6915 6bbd 13a6 3f3e 788e 8fbd
000000a0: 651c c5bd f531 91be 7586 cb3d c4c4 4bbe
000000b0: d644 acbd 387c 3b3d 6916 29bd d326 2f3e
000000c0: 2f4a 92bd dfe0 f6be 7e45 063e 645f 09be
000000d0: 46e8 62be 3bab 153e f874 b3bd 797a e83b
000000e0: 3cdf 04bf fb41 b7be 99b2 1cbe 3297 9a3c
000000f0: ed22 4fbc 5b19 bbbe aabe 453d f551 cbbe
00000100: eea4 a4be 2f51 62bd ef0d 213d a8de 9dbd
00000110: 1c8d 823c 8f33 86be bace 50bd 5856 8e3d
00000120: a4fb ac3d 646a 09bd 0627 913d 6f0b 513b
00000130: 1beb ba3d 99c3 673b 64ad 4dbe 2e31 713b
00000140: 62fa 533d d633 86bc 978f 94bd 7c99 babd
00000150: f220 c93d 6df8 e8bc 2f30 873d 9073 63be
00000160: af92 463d 51fe 003d f961 de3d 7520 8d3e
00000170: 0227 233e c755 383d eea5 0d3d 2722 083e
00000180: 08a3 cdbd 59dd 0e3d f0e9 6ebd f176 b33d
00000190: 6424 013e 800c 303d dbec 8c3d 1bcd ba3d
000001a0: 8699 b33c 1326 9abe 4f51 29bf 021e 87be
000001b0: 60b3 bfbc 2d1c 0ebb 71f0 273c 484c e6bc
000001c0: 0618 1abd 457e be3d 41f1 29be c441 09be
000001d0: 08e7 adbc 42ad 0bbe c8e4 ddbd dd15 793d
000001e0: a604 6cbe b60b b03e f0fd f83d 63fe aebd
000001f0: 90c5 c53c c1d9 debd 1ed9 493e 499a 883d
00000200: 08f5 0ebf 4d25 89be e88b 79be 76da 1abd
00000210: 0d56 d2bd 059c 50be fd37 aabe 9ca8 92bd
00000220: 4770 793d da59 123d c6ee 8b3e db06 8ebd
00000230: e073 31bc d92f d7bd 59f9 8dbf 9133 263e
00000240: 0561 63bc 3c93 07be 58d1 a2bc 616d 61be
00000250: 5430 e93d 1838 ff3d 5427 24bd 3980 ab3e
00000260: 7388 7cbd ac9c 18bf 42e0 d9bd 3bc5 6dbd
00000270: 323e 81be c371 5e3e b13e ebbd 251f 40be
00000280: 4e33 99bd 8821 a7bd cbd2 9f3c efaf fcbd
00000290: b444 c43d f551 cdbd a630 073e 0482 3abd
000002a0: 4c36 903a 9d1e c8bd 4e02 583d 7d35 a7bd
000002b0: 30a1 bd3c 5d64 0fbe 4f96 2a3d d130 1cbe
000002c0: f88b 3b3e 0388 d03e 1437 c1bd 2fe7 ef3d
000002d0: 17ff ac3e 212f 1dbe 44fa a13d 77fe 2b3e
000002e0: c0b3 69be 4fa3 913d bee7 b1bf c538 b93d
000002f0: 33e4 803d 6331 c6bd e2c4 693d ee00 373d
00000300: c149 e63e f709 50bd b8eb babd 8971 7dbc
00000310: d352 1a3d db43 833d 5fea 293e 3867 4e3d
00000320: 18a9 aa3d 31b8 bfbd 4690 fabd fae0 a2bd
00000330: 3403 88bd 9bdc c73c 63b1 f7bd 582c 843d
00000340: 7714 bb3c 08f5 95be 7dde 733d 09b7 a8be
00000350: 805f a2bb 422c 293c 7f63 52bd 6a39 11be
00000360: 9a6a febc c710 bd3a e0d1 5f3d 42f2 93bd
00000370: 414b f03c f854 60be a0e6 f03d eaa2 ab3d
00000380: 9854 e0bc 77f3 03bd 586a efbc 75b1 f9bc
00000390: cdf3 61bd 4d5e c03d 5b9b e3ba ec7a fe3d
000003a0: 3248 e23d 5aca 743c 2efa 02be 2f85 653d
000003b0: ec00 cd3d 9482 9abe 2a17 e33d ae16 d53d
000003c0: 2946 30be 6344 2c3e cb4f f8bd 4691 c1bd
000003d0: 9b69 83bd 6f12 743d e859 b23c 0377 c43d
000003e0: e961 7fbe 5b85 c1bd fc4d c9bb 81eb 08be
000003f0: c96e 1e3d 05cb b8bc 7c65 a4bd 6b8c c4be
0.36253348 0.17202386 0.14686184 0.056693736 0.03473516 0.08199691 -0.47297695 0.022615796
-0.06554621 0.054557513 -0.10206303 -0.009806034 -0.013396343 -0.062370226 0.02492154 0.067435995
-0.06656156 0.18450113 -0.15017682 -0.06568948 -0.0042127073 -0.48505056 -0.098688275 -0.45740396
-0.00078947237 -0.2593619 0.07211394 0.00955586 0.29852536 -0.18306863 0.04883054 0.107806265
-0.42344362 0.05712806 0.14840013 0.104957104 0.016015869 -0.057393465 0.18715696 -0.07009596
-0.096245565 -0.28358427 0.09937755 -0.19899279 -0.08411567 0.04577276 -0.041281138 0.17104654
-0.07143056 -0.48218438 0.13112447 -0.13415295 -0.22158918 0.146161 -0.087625444 0.007094678
-0.5190313 -0.35792527 -0.15302505 0.018870924 -0.012642604 -0.36542782 0.048277535 -0.39710966
-0.3215708 -0.055253204 0.03931993 -0.07708484 0.015936427 -0.2621121 -0.0509784 0.069500625
0.08446434 -0.033548728 0.07087521 0.0031897684 0.09126874 0.0035364388 -0.20085675 0.0036802995
0.051752456 -0.01638214 -0.0725395 -0.09111306 0.09820737 -0.028438771 0.06600987 -0.22212052
0.048479732 0.031492535 0.108585306 0.27563825 0.15932849 0.04500368 0.03458207 0.13294278
-0.10040861 0.034879062 -0.05832857 0.08762921 0.12611538 0.04298067 0.06881114 0.09121152
0.021923792 -0.30107173 -0.6613969 -0.26390082 -0.023400962 -0.0021684275 0.010250197 -0.028112546
-0.037620567 0.09301428 -0.16595937 -0.13403994 -0.021228328 -0.13640311 -0.10834652 0.060811866
-0.23048648 0.34383935 0.1215781 -0.08544614 0.024142057 -0.10881377 0.1971173 0.066700526
-0.5584264 -0.2678627 -0.24369776 -0.037805997 -0.10270319 -0.20372017 -0.3324584 -0.07161066
0.06089809 0.03573022 0.27330607 -0.06934901 -0.010830849 -0.10507173 -1.109172 0.16230609
-0.013878112 -0.13239759 -0.019875214 -0.22014381 0.11386171 0.12461871 -0.04007657 0.33496264
-0.061653566 -0.5961406 -0.10638477 -0.05804942 -0.25242764 0.21723084 -0.11486567 -0.1876188
-0.07480489 -0.081606925 0.019509694 -0.12338244 0.095834166 -0.10025398 0.13202152 -0.04553415
0.001100251 -0.09771464 0.052736573 -0.08164499 0.02314815 -0.1400313 0.04164725 -0.15252997
0.18315113 0.4072877 -0.094343334 0.11714017 0.33788368 -0.1535001 0.079090625 0.1679629
-0.22822475 0.07111227 -1.3898847 0.09044031 0.062935255 -0.096773885 0.057072528 0.04467862
0.44978145 -0.050790753 -0.09126991 -0.015468963 0.037676644 0.06409427 0.16593312 0.050391406
0.08333033 -0.093613036 -0.12234549 -0.07953067 -0.06641236 0.024397185 -0.12094381 0.064537704
0.022836907 -0.29288507 0.059538353 -0.32952145 -0.004955232 0.010325493 -0.051364418 -0.14182058
-0.031056691 0.0014424556 0.05464351 -0.072239414 0.029332759 -0.21907413 0.11762738 0.08380683
-0.027384087 -0.032214608 -0.029225513 -0.030480126 -0.055164147 0.093929864 -0.0017365025 0.12425789
0.110489264 0.0149408225 -0.12790748 0.056035217 0.100099415 -0.30177748 0.110884026 0.104047164
-0.17214264 0.16822962 -0.12124594 -0.09451537 -0.06416627 0.059587892 0.021771386 0.09593012
-0.24939694 -0.09449264 -0.0061433297 -0.13371088 0.03867987 -0.022557745 -0.08027169 -0.3838838

conv2.bias f4 [32]
00000000: c501 20be 356d fbbe 9cab e13e 3e56 abbe
00000010: 38cf 17be 4ab2 28be 9c29 873e 6776 2fbe
00000020: 1e28 afbd ed78 1cbd f989 ab3b 034b 61be
00000030: 230d 39bd 0d81 5ebe 7892 95be 7c3d b03d
00000040: 926d 56be 158d d9bd 089a 20bd 6e93 883d
00000050: 0b19 df3d 5e3a 3cbe df4d b3bd 4408 12be
00000060: 3749 54bd 9f14 dc3e 9c33 88be 494b 26be
00000070: 3ec0 47be c5b7 8f3e 8c0a 27be 2d79 3dbf
-0.15625675 -0.49106756 0.4407624 -0.33464235 -0.14825141 -0.16474262 0.26398933 -0.1713501
-0.085525736 -0.03820126 0.0052349535 -0.22001271 -0.045178544 -0.21728916 -0.2921331 0.08605477
-0.20940235 -0.106226124 -0.039209396 0.06668745 0.108934484 -0.1838164 -0.08755087 -0.14260966
-0.051827636 0.42984483 -0.26601875 -0.16239657 -0.19506928 0.28069893 -0.16312617 -0.74013025

conv3.weight f4 [1, 32, 5, 5]
00000000: 38e6 d53d c9ed 053a 7fd5 14bd dd72 db3d
00000010: 3d0a 2d3e 8521 8bbd aa96 a2bd 0057 31be
00000020: 4ad3 a0bd 6b44 863d 9cac 95bc b581 f6bb
00000030: aff4 36be ced7 2bbe 7518 82bd 6149 213e
00000040: 20b1 8c3e df2d 143d de13 82bd 9f4f edba
00000050: 186d 963c 0bb6 3d3e 3e25 62bd ecd5 70bd
00000060: a301 9b3c 22cf 013c e752 b6bd b0d4 42bc
00000070: 3ed0 6e3c 7462 9ebc 88dc a73c 324d 933d
00000080: 3cdc 993d f56e 043d 5824 76bd e897 76bd
00000090: 6916 b6bd d372 463d 2502 783d baf5 e4bd
000000a0: 0fa1 cbbd a255 5abe 311e 8bbd 3d1a 3e3d
000000b0: e7fb 00be b9de 503c 169d 86bc 0059 153e
000000c0: 338a 193e b9a2 9a3c 88e8 d93b 1825 3b3d
000000d0: 171e af3c 93ec 8f3c ddf7 bb3c 03ba 95bb
000000e0: 0b8c 8c3c 02ff bdbc 698a f8ba a04d 383d
000000f0: 8a99 993d a221 4a3d 1353 a1bc 0a94 e0bb
00000100: cae7 363d f08b 9e3d cec1 053d da2d 993c
00000110: 318e af3b 70c2 043d 72a1 043d e750 ee3c
00000120: 9d28 af3d 1a38 6e3c ed39 ae3c 9752 eebd
00000130: 185d 9abd fc6d 87bc 8633 b73d c0c5 3f3e
00000140: 494e 1fbe 0faa c8bb 6e6c 5bbd 3c81 013c
00000150: 417a c63d d9d9 35be bbc4 a63d e93c 9c3c
00000160: bc46 0cb9 0bd4 513d 1215 38be 4ffc 5b3d
00000170: 3153 843d beb1 263d a21e ce3c 0f2f e9bd
00000180: 1203 863d af32 c1bc 7227 e93c 2445 a13c
00000190: df02 91bd 4f93 05bd 6a57 b93d b02f 713a
000001a0: 4b7f 833d f4e8 8bbd 4fa2 e3bc 54f6 97bc
000001b0: 4deb fabc c6d5 b53d 0902 c63c 409c 31bb
000001c0: d6e7 d23d 2c4b 843d 5544 123e a890 223d
000001d0: 7c3e cf3c 7035 083d f0f4 783d 6293 893d
000001e0: 6fca 97bc a76b 0ebd a4cb d93c 1c54 6fbd
000001f0: c68a e6bd fea2 9cbd ac29 483c 23fc babc
00000200: ea80 58bd 93d0 c3bd 57ea 823d 6d03 343d
00000210: 829d 273d 5a2c 753d 3124 083d 0674 89bc
00000220: 2c11 8fbd 3eed b9bd 45b7 94bb 8598 693d
00000230: 34b3 0c3d 6574 82bd 3bf7 673d dc4e a03d
00000240: 9887 a23d 18b0 8fbd f939 19be 6864 253d
00000250: 5c0b 183e ea99 453d c255 08bd 6df0 47bd
00000260: 6070 93bd 0e8d 353d 6237 fd3c 3dd4 bfbd
00000270: 8ec5 6ebd 75e3 36be d5ba 89bd 4587 d13c
00000280: a693 08be e985 633d d985 8dbd d986 1cbe
00000290: 162c 85bc fd51 a7bc 4d35 8c3e 1b75 963e
000002a0: 6446 053c 96b5 45bd 382a 5cbd b2d4 273e
000002b0: b191 0c3e c58d da3c 7713 97bd 4ad8 3d3c
000002c0: 41ab 3ebd 442b 8abb c786 6dbc c459 9d3b
000002d0: 4c13 133d 74a9 cebc 069a 90bc 96e4 edbc
000002e0: 8fc8 403b b2ab b2bc 4c45 483c d7cb febb
000002f0: c595 9abc 2e2c 86bc fd94 bbbc 2895 ef3c
00000300: e483 ffbc 8a83 55bd 5782 6bbc ce68 f63c
00000310: bb8c 833b 1507 3abc 6021 22bd 02f7 143c
00000320: 0f0d 1e3d b5ff ab3d c6c3 293c 4a2e e7bc
00000330: f79f 3f3d 3189 a63d d53d cb3c 1ad2 2dbd
00000340: ebb0 a3bd 6877 babd 2b73 993d 541b e63c
00000350: a226 bb3d 2c30 3b3c 3939 38bd 50ed 7e3c
00000360: d1d3 3d3d b3a3 d53c 3566 b33d 6efc 503d
00000370: 2b69 f538 5898 103c 1711 653c 55ae 423c
00000380: 08aa 073d 50c0 55bd 5a34 54bd edfb 27bd
00000390: fa2e d93d 93a6 173e 9ae8 84be ec31 7abd
000003a0: 9193 28be 575f 01be 8191 463d 1f9b 53be
000003b0: 3dcf 283d 867d 9b3a 7db0 fabd 4fc5 833b
000003c0: 0b6b c53d 1146 8f3e a549 b63e 97f7 a03d
000003d0: 06a8 b0bd fa95 47bc f344 2a3e 2db1 023e
000003e0: ca78 1a3c db25 84bd 075c b43a ba66 283d
000003f0: 10b0 063c 0acf aebc f473 3cbc d3a8 57bd
0.10444301 0.000510898 -0.03633642 0.10715268 0.16898437 -0.06793503 -0.07938893 -0.17318344
-0.078528 0.065560184 -0.018270783 -0.0075227865 -0.17866777 -0.16781542 -0.06352321 0.15750648
0.27478886 0.03617656 -0.063514456 -0.0018105394 0.018362567 0.18526475 -0.0552113 -0.05879776
0.018921679 0.0079229195 -0.08902531 -0.011891529 0.014576016 -0.019334055 0.0204909 0.07192458
0.075127095 0.03233238 -0.060093254 -0.060203463 -0.08890993 0.04844935 0.06054892 -0.11179681
-0.09942829 -0.21321729 -0.06792868 0.04641174 -0.12596093 0.012748414 -0.016432326 0.14584732
0.14994125 0.01887642 0.0066500343 0.045689672 0.021376653 0.017568862 0.022945339 -0.0045692935
0.017156621 -0.023192886 -0.0018962148 0.044995904 0.074999884 0.04934848 -0.019692933 -0.006853585
0.044654645 0.07741535 0.03265553 0.018698622 0.0053575267 0.032411993 0.03238053 0.029091312
0.08552668 0.014539743 0.021267856 -0.116368465 -0.075372875 -0.016531937 0.08945374 0.1872778
-0.15557207 -0.006123788 -0.053570203 0.007904347 0.09691287 -0.17758884 0.08142992 0.019072013
-0.00013377791 0.05122761 -0.17976788 0.053707417 0.0646118 0.040696852 0.025161091 -0.11385929
0.06543554 -0.023583738 0.028461192 0.01968629 -0.07080626 -0.032611188 0.09049876 0.00092005264
0.064207636 -0.06831542 -0.027787356 -0.018550076 -0.030629778 0.08878665 0.024170892 -0.002710119
0.102981254 0.064596504 0.14283879 0.039688736 0.02529835 0.033254087 0.060780466 0.06717564
-0.018529145 -0.034770634 0.026586361 -0.058429822 -0.11256938 -0.07648276 0.012216967 -0.022825306
-0.052857317 -0.09561267 0.06392353 0.04394858 0.040921696 0.05985675 0.03323764 -0.016778957
-0.06985697 -0.090784535 -0.004538449 0.05703022 0.03435059 -0.06369857 0.05663226 0.07827541
0.07936019 -0.07016009 -0.14963521 0.040378958 0.14848083 0.048242487 -0.03328491 -0.048813272
-0.07199168 0.044323973 0.030910198 -0.09366653 -0.05829387 -0.17860205 -0.067250885 0.025577197
-0.13337573 0.05554763 -0.06910295 -0.15285815 -0.016256373 -0.020424837 0.27384415 0.2938622
0.008134458 -0.048268877 -0.0537512 0.1638973 0.13727452 0.02667893 -0.073767595 0.011587212
-0.04655004 -0.0042165834 -0.014497465 0.0048019607 0.035907075 -0.025227286 -0.01765157 -0.029039662
0.0029416417 -0.021810386 0.012223553 -0.0077757644 -0.018870244 -0.016378488 -0.022898192 0.029245928
-0.03119082 -0.0521274 -0.014374337 0.030079272 0.004014579 -0.011354228 -0.03958261 0.009092094
0.038586672 0.083983816 0.010361617 -0.028220315 0.046783414 0.08131636 0.024809757 -0.042436697
-0.07992729 -0.09104806 0.0749267 0.028089203 0.09138228 0.011425059 -0.044976447 0.015559509
0.046344582 0.026079034 0.08759729 0.051021986 0.000117020994 0.008825384 0.013981125 0.011882384
0.03312114 -0.052185357 -0.05180774 -0.04101174 0.10604663 0.14809637 -0.2595871 -0.061082765
-0.16462542 -0.12634026 0.048478607 -0.20664643 0.041213263 0.001186297 -0.12240694 0.0040213238
0.096395575 0.27983144 0.3560306 0.07859724 -0.08625798 -0.012181753 0.16627865 0.127629
0.009428212 -0.06452533 0.0013760336 0.041113593 0.0082206875 -0.021338958 -0.011502255 -0.052651238
