pretrained_models/SRCNN_250epochs.pth (torch, 34839 bytes, 5 tensors)

conv1.weight f4 [64, 1, 9, 9]
000000 9e 75 3d 3e f6 28 d7 3d d9 c2 21 3e 6c ce 96 3e
       0.18501899 0.105058596 0.15796985 0.29454362
000010 e2 f8 4a 3e 9e 19 70 3d f2 c6 d8 3d 4e 3e b3 3d
       0.19821504 0.05861818 0.10584821 0.08752118
000020 84 36 4a 3e 67 ab 9d 3e a9 65 a5 3e 1d 4e 65 3e
       0.19747359 0.30794832 0.32304123 0.22393079
000030 91 bc 8d 3e d5 f0 6a 3e b8 df 85 3e bb 0d 18 3e
       0.27682927 0.22943433 0.26147246 0.14848988
000040 00 26 76 3e c0 9d c4 3e 61 95 e3 3e 71 c6 4e 3e
       0.24037933 0.38401604 0.44449905 0.20192887
000050 27 d9 4a 3e 18 0c 7d 3e 4b 35 28 3e ab 65 87 bb
       0.198094 0.24711645 0.1642658 -0.004131993
000060 e3 2d 3c 3d 8b 97 00 3e 33 aa d6 3e 9f f0 ab 3e
       0.0459422 0.12557809 0.41926727 0.33582017
000070 b6 90 57 3d 7b bf 6a 3d b5 45 ed bd 31 79 08 be
       0.05262824 0.057311516 -0.11585561 -0.13327481
000080 b3 0a 35 be 3b 18 7a be c8 53 9f 3d d0 0f b7 3e
       -0.17679863 -0.24423306 0.07779652 0.3575425
000090 59 76 12 3e f5 3c 47 be ce c2 dd be 4c 72 03 bf
       0.14302959 -0.19456847 -0.43312687 -0.5134628
0000a0 fd c7 23 bf fc 44 18 bf db 1d 07 bf 1e 6d ba be
       -0.6397703 -0.5948026 -0.5277993 -0.36411375
0000b0 aa 97 19 3e 1a 1d b4 3d 60 eb b7 be 3f 5f 3a bf
       0.14999261 0.08794613 -0.35921764 -0.72801584
0000c0 db 84 7f bf 17 3d 87 bf cf 3e 90 bf a0 7a 52 bf
       -0.99812096 -1.0565518 -1.1269168 -0.8221836
0000d0 64 ee 03 bf ea 94 dc 3d d8 4f 3e 3e a8 46 98 be
       -0.5153563 0.107705906 0.18585145 -0.29741406
0000e0 c8 cd 19 bf 6a 0a 7b bf 7c 4f 72 bf 7c 34 73 bf
       -0.6007962 -0.98062766 -0.94652534 -0.9500196
0000f0 c3 13 47 bf a0 ec be be fc 9e 45 3e 3b 1e 0b 3f
       -0.7776453 -0.37289906 0.19298929 0.54343003
000100 80 34 b2 bc 17 c1 86 be b8 e7 0c bf ba 9d 21 bf
       -0.02175355 -0.2631919 -0.55041075 -0.63131297
000110 c8 3e 25 bf 37 32 a0 be f2 fb 8f bc f8 78 b0 3e
       -0.6454892 -0.3128831 -0.017576192 0.34467292
000120 49 98 86 3f a2 d8 30 3f 1c 20 ba 3e 59 4a 9b 3e
       1.0515224 0.69080555 0.36352623 0.3033016
000130 75 42 32 3e 87 7d a2 3d e6 85 c9 3e 4e 5c 24 3f
       0.17408164 0.07934099 0.3935997 0.64203346
000140 2b c8 7c 3f 42 58 23 bd e7 d9 56 bd 9c 8b 32 3d
       0.9874293 -0.03987909 -0.0524539 0.043590173
000150 9d 72 5d bc 4a 25 e2 bd e6 8e 01 3d d1 08 28 bd
       -0.0135160955 -0.110422686 0.03163042 -0.041024033
000160 e4 a2 90 3d fb 12 10 3d 27 4b cf bd dd d7 95 3d
       0.07062319 0.03517435 -0.10121756 0.07316563
000170 70 79 86 3d 2a 76 ab bd 73 66 1e bd 59 78 a5 bc
       0.06566131 -0.083721474 -0.038671922 -0.020198988
000180 60 0a 9c 3d b0 08 6e bc a4 85 d4 bd e1 37 22 bd
       0.076191664 -0.014528438 -0.103770524 -0.03960407
000190 ea 3b 45 bc 8f fd 2e bd b1 06 bc 3d 63 63 c0 3d
       -0.01203821 -0.04272228 0.09180964 0.093939565
0001a0 a3 4f de 3b 82 47 23 bd c4 89 5a 3d e9 29 44 bd
       0.006784396 -0.039863117 0.05335404 -0.04789153
0001b0 34 98 c2 3d 2e 8f b7 bd 0c ed b7 bd c3 dc bc bd
       0.09501687 -0.08962856 -0.0898076 -0.092217945
0001c0 b8 f7 9a 3d 39 33 9a 3d 24 7a ad 3c 48 04 6a bd
       0.0756678 0.07529301 0.021176405 -0.05713299
0001d0 1b 4f 87 bc ff 1f 99 3d 3f de bb bd 25 30 1a 3d
       -0.016517213 0.07476806 -0.091732495 0.03764357
0001e0 f8 f0 ed bd 13 b4 91 3d 05 37 84 3d 15 a3 a4 3d
       -0.11618227 0.071144246 0.06455807 0.08038918
0001f0 97 18 d0 bd 00 67 f1 bd 55 88 9e bd bf ec d0 bd
       -0.1016094 -0.11787224 -0.07740847 -0.10201406
000200 fb f6 ca 3d e5 43 a1 bd f5 02 a9 3c 08 a2 0a bd
       0.09910389 -0.07874278 0.020631293 -0.03384593
000210 7c 14 8c 3d 0a 1b b8 3d 6c 46 b4 3d 54 0f d3 3c
       0.068398446 0.08989532 0.088024944 0.025764145
000220 aa 0f e8 bd 26 e6 b2 3d 73 7d e8 bc bb 5f 42 bd
       -0.11331113 0.087353036 -0.028380131 -0.047454577
000230 0a 39 58 3c 07 f9 80 bd 8c 52 ba 3d 61 b4 74 3d
       0.013197193 -0.06297498 0.09097776 0.059742335
000240 11 86 d8 3c 28 09 88 bd 9f 1a ee 3c 44 f9 e5 bd
       0.026431115 -0.066423714 0.029065428 -0.11229184
000250 d3 0c c6 bd c4 c8 02 3d a7 5d 4b bd 66 e6 38 3d
       -0.09670415 0.031929746 -0.04964986 0.0451416
000260 0a 89 cb bc 0c 03 cf 3d 33 16 96 3c 44 27 57 bc
       -0.024845619 0.10108003 0.018321132 -0.01313192
000270 01 23 a6 3d 16 b0 0c 3d 75 bd c4 3d e2 18 9b bb
       0.08112145 0.034347616 0.096064486 -0.004733191
000280 54 73 2c bd 35 86 9e bd ea d7 eb bd 14 63 76 3d
       -0.042102173 -0.07740442 -0.11515792 0.060153082
000290 70 68 05 bd 13 f6 a5 3d 67 8f c0 bd 49 b5 e2 bd
       -0.032570302 0.081035756 -0.09402352 -0.11069734
0002a0 13 8c 1c bd 14 45 6d bd 84 0f 57 3d 6b 40 9e bc
       -0.038219523 -0.057927206 0.05250503 -0.019317826
0002b0 d6 7c ca bd 9c 06 ff bc 90 1d a7 3d 8c 41 61 3d
       -0.09887092 -0.031131081 0.081599355 0.05499415
0002c0 21 34 7b 3c 72 d0 47 bd b4 0d cb bd 9c 49 51 3d
       0.015332253 -0.048782773 -0.09914723 0.05109559
0002d0 e4 ae 94 3c 8e 7e a5 bc 81 6f 78 bd cc 40 b9 bd
       0.0181498 -0.020201948 -0.060653213 -0.09045562
0002e0 af 48 59 3d 6d 85 52 bd 8e 50 12 3d 74 36 32 3c
       0.053047832 -0.051396776 0.035721354 0.01087724
0002f0 f5 7e c3 3d c1 b2 0e 3d 32 ae 9d bd d6 96 e7 bd
       0.095456995 0.03483844 -0.07699241 -0.113080665
000300 63 d6 2d 3c c4 66 81 3d ff 4f 46 3d 5e d6 6f 3c
       0.010610196 0.06318429 0.048416134 0.014638511
000310 99 79 1a bd 90 ae f4 bb cc 0f b5 3d a1 94 6f 3d
       -0.03771362 -0.0074670985 0.08840904 0.058491353
000320 f5 e4 b6 3d b9 9f 85 3d 06 e4 c2 bd 81 3e b5 bd
       0.08930389 0.06524605 -0.09516148 -0.08849812
000330 35 34 9d bd 0f 32 c9 3c 17 21 37 bd 0b a9 6f bd
       -0.07675973 0.024560003 -0.04470929 -0.05851082
000340 79 30 96 bd 75 6d 55 bd ae c3 ad bd 6e 42 ce bd
       -0.07333464 -0.05210634 -0.084845886 -0.10071264
000350 3e ef fd 3c 76 64 e6 bd 8f 2c 88 bd c9 99 6e 3b
       0.030997869 -0.1124963 -0.06649124 0.003640758
000360 20 8f 1a 3d a7 88 ec bc 8c 41 08 3d 03 83 03 bd
       0.03773415 -0.028873755 0.033265635 -0.032107364
000370 a3 15 85 3c 2e 1e a6 bd e0 b2 29 3d f2 30 5b 3d
       0.016245669 -0.08111225 0.041430354 0.053513475
000380 96 7e 34 bd c2 15 ed bc 0f 73 93 bd 5e 99 f8 3c
       -0.044066034 -0.028941039 -0.0719968 0.030346569
000390 65 76 33 3d 6c c3 b0 3c 18 ba 3f bc 62 39 36 bc
       0.04381408 0.02157756 -0.011702083 -0.01112208
0003a0 de 6a 01 bd a5 4d b6 3d 74 71 6c bc ef 6d ae 3d
       -0.031596057 0.08901528 -0.014431346 0.08517062
0003b0 8f 54 1e 3d 8d b3 fa bd 9d 48 86 3d b8 87 08 3d
       0.03865486 -0.12241278 0.06556819 0.033332556
0003c0 2b 33 08 bd 32 9b 26 bd 2e b2 7d 3d df aa a6 3d
       -0.033251923 -0.04067535 0.061937504 0.0813806
0003d0 f4 27 19 3d 3d de 7f bd 98 aa 9f 3b 79 e0 9d 3c
       0.037391618 -0.062467802 0.0048726313 0.019272076
0003e0 ac f4 c9 bc 8e 2a cb 3c 7d 1e d1 bd 34 9d c0 bd
       -0.024652801 0.024800565 -0.10210893 -0.09404984
0003f0 fd ff 75 bc d7 c6 be bd a2 09 b8 bc 9a 2e ca bd
       -0.015014646 -0.093152694 -0.02246553 -0.0987217

conv1.bias f4 [64]
000000 2a 09 6d bd 0d ab e5 bd d8 7a 70 bd ad 91 17 be
       -0.057870068 -0.11214266 -0.058710903 -0.14801665
000010 0a 57 45 bd ca 5d 00 bf 8a 67 68 bb e9 3b 1b 3b
       -0.04817871 -0.5014311 -0.0035462105 0.0023686832
000020 c5 18 be bf 96 75 03 be e8 44 3c bf b5 4d 06 3c
       -1.4851309 -0.12837824 -0.7354264 0.008197238
000030 00 35 6f bd 86 1d 21 3c ea c8 a4 3a 59 55 79 3c
       -0.058400154 0.009833699 0.0012572084 0.015218102
000040 26 dd fa be 78 96 44 be c5 1e 30 bb 47 41 28 bd
       -0.48996848 -0.19198024 -0.0026873809 -0.04107788
000050 21 ae a4 3c 3b e2 51 bd 1e 41 08 3c 86 48 c3 bc
       0.020102562 -0.05124114 0.008316306 -0.023838293
000060 fc f1 92 bd 1a 39 a6 bd 96 42 cf bd a5 49 03 3f
       -0.07175061 -0.0811636 -0.10120122 0.5128425
000070 dc 90 08 bb 14 04 24 bd 41 e0 7c bd 60 ae b7 3c
       -0.0020838296 -0.04004295 -0.061737303 0.022422016
000080 d1 bd 48 bd 80 64 22 bb d8 6f 40 3c 93 d7 ae 3c
       -0.049009148 -0.002477914 0.011745416 0.021343028
000090 6c f6 60 3c 18 a0 5c bd 50 66 5d bb aa 22 1c 3b
       0.013730627 -0.053863615 -0.0033782907 0.0023824372
0000a0 ba 2c 91 3d 5b 52 51 bd 48 c1 8c bd c3 a7 92 bc
       0.07088609 -0.05110393 -0.06872803 -0.01790226
0000b0 e0 98 bf bd 58 be c2 bb c6 f3 32 bc d7 a8 ba bc
       -0.093553305 -0.005943101 -0.010922378 -0.022785587
0000c0 85 1d d1 bd 92 08 8d be 1b d1 77 3d 90 05 97 bd
       -0.102107085 -0.275456 0.060502153 -0.07374108
0000d0 c3 37 79 bb 57 bb 63 bc 6a ff 0e bd 48 fb b8 bd
       -0.0038027621 -0.013899646 -0.03491155 -0.09032303
0000e0 54 88 bf bd f0 60 d0 bb 21 cd 85 bd 98 e0 d6 be
       -0.093521744 -0.006359212 -0.06533266 -0.41968226
0000f0 a5 db 1d be a9 f8 c7 bd 57 8b b5 bd 2b 15 2f bd
       -0.15415819 -0.09764225 -0.088644676 -0.042744797

conv2.weight f4 [32, 64, 1, 1]
000000 8f 0d 67 3a 2c 31 83 bd 60 28 cf 3c 44 92 7d bd
       0.0008813971 -0.06405863 0.025287807 -0.061907068
000010 0c c1 1c 3d 9b 09 c4 3e f4 4f 20 bd 80 56 aa be
       0.03827004 0.38288578 -0.03913875 -0.3326912
000020 bf 93 14 3e 22 bb 90 be 92 39 c1 bf 18 5f 12 3d
       0.14509486 -0.2826777 -1.5095694 0.03573522
000030 dc 55 3b bd 5f a2 0c 3d 0c cd 3f bc 2a 31 0b 3f
       -0.04573618 0.034334537 -0.011706602 0.54371893
000040 5e 44 eb 3d 89 ae a7 bd c8 ae d6 bb 29 bb df bc
       0.114876494 -0.08187587 -0.0065515973 -0.027310925
000050 c8 ef 0d 3e ee 32 c7 bd d9 de 91 bd 35 4d 0a 3e
       0.13861 -0.09726511 -0.07122583 0.13506015
000060 78 1a 29 3d 40 78 27 bd ad ae ab 3d b7 c4 ae 38
       0.04128501 -0.040886164 0.08382926 8.3336075e-05
000070 16 6f 9c 3d 45 48 0d bd e7 9c 36 3e 6b 90 4c bf
       0.076383755 -0.03449275 0.17833291 -0.79907864
000080 06 ba 2e bd 0a 95 80 3f 89 c4 52 bd e3 5e 61 3e
       -0.042657875 1.0045483 -0.05145696 0.22008853
000090 d1 51 1e bc 4e a8 a0 3d 1b 66 b1 bf e8 33 f7 3d
       -0.009663061 0.078446016 -1.3859285 0.12070447
0000a0 84 9f cd bc 40 ce 26 3c e3 8b 9b 3c 39 4a 8d be
       -0.025100477 0.01018101 0.018987602 -0.2759569
0000b0 20 16 1a bf d4 6a 9a bd b8 bf c4 3d 62 02 87 bd
       -0.6019001 -0.07539907 0.0960688 -0.06592251
0000c0 2a 49 ec 3d 13 3e ec bc df 56 06 be 45 61 88 bc
       0.115373924 -0.028838193 -0.13119076 -0.016647944
0000d0 5c ee 0c 3d cd a4 33 3e 55 2e 75 bd 8d 0c fc 3d
       0.034407005 0.17543335 -0.05985864 0.12307081
0000e0 90 41 17 bc 52 42 87 3d dc 81 42 bb 0b 1e b2 3e
       -0.00923194 0.066044465 -0.0029679453 0.34788546
0000f0 32 cd a9 3c 08 75 3c bd ce fe dd be ba 6c 9f bd
       0.020727728 -0.046010047 -0.43358463 -0.0778441
000100 b4 a6 18 be 8e 04 86 3d b0 79 24 3c 4a 40 24 be
       -0.14907342 0.065438375 0.010038778 -0.1604015
000110 de 61 e4 3d ce 52 00 bd c9 6c ce 3d e0 7b 98 bd
       0.11151479 -0.03132897 0.10079343 -0.07445502
000120 30 a1 08 3c fc 79 84 bd 55 a7 28 bc b3 96 0f be
       0.008339211 -0.06468579 -0.010293801 -0.14022331
000130 e0 10 f7 bc 6f 88 71 bd c7 4c 99 3b 70 be 19 be
       -0.030159414 -0.058968004 0.004678342 -0.15014052
000140 1b 06 22 3d 20 89 2b bd 80 10 13 be fb 94 95 3c
       0.039556604 -0.04187882 -0.14361763 0.018259516
000150 44 af 22 be f8 b2 74 3d b4 17 e8 bc d0 ba 04 be
       -0.15887171 0.05974099 -0.028331615 -0.12961888
000160 6e db 90 3d da 62 d2 3d 50 69 47 bd 62 5f 7c bc
       0.07073103 0.10272761 -0.04868442 -0.0154036
000170 14 70 25 3d 76 82 92 bb 70 82 80 bc fd 33 06 be
       0.04039009 -0.0044711186 -0.015687197 -0.1310577
000180 f0 cb ca 3c 8b 3e 2c be e6 ad 6a bc cf 37 d7 bd
       0.024755448 -0.16820733 -0.014323687 -0.105086915
000190 4a ce 23 3c a2 9c f2 bc 9c 48 d4 bd fa 27 25 bd
       0.009997914 -0.029615704 -0.10365412 -0.040321328
0001a0 7e 11 1d be 10 ed 58 3d 4d 04 e9 bd e6 3a a7 bc
       -0.15338704 0.052960455 -0.113777734 -0.020413827
0001b0 08 38 a3 3c 97 5b 02 be 18 f7 a0 bd b4 cf a3 bd
       0.019924179 -0.12730251 -0.078596294 -0.079986006
0001c0 88 cc dd bc 97 2f a7 bc cc cf 3e bd d4 2c 17 bd
       -0.027075067 -0.020408435 -0.04658489 -0.036907986
0001d0 29 78 9d bd d5 d3 f7 bd 4b a1 31 be 14 99 ef bd
       -0.07688934 -0.12100951 -0.17346685 -0.11699119
0001e0 80 68 d1 3b b7 78 51 bd 20 ef 56 bd 1f eb 14 be
       0.006390631 -0.051140513 -0.05247414 -0.14542817
0001f0 e9 2e f5 bc 50 62 64 3d a3 f9 4d bd b2 3f bf 3d
       -0.029929595 0.05575782 -0.0502869 0.09338321
000200 61 84 65 bc 22 4f 2a 3d 47 4a 33 ba 8a b6 1f 3d
       -0.014008612 0.041579373 -0.00068393763 0.038992442
000210 ad 3d 80 3d 3e 33 73 bc 1a 74 a0 3c be a0 60 3e
       0.06261764 -0.01484376 0.019586612 0.21936318
000220 ad f4 85 3d ca fc 79 be cf 57 bd 3c a7 84 38 bd
       0.06540809 -0.24412838 0.02311316 -0.045048382
000230 50 18 13 bd 61 44 06 be d5 4d 7d 3d 7e 75 c3 bd
       -0.035911858 -0.13112022 0.061841805 -0.09543894
000240 c8 67 d3 bc 7d 1f 11 bd 83 d6 be be 7d c3 bc bd
       -0.025806323 -0.03543042 -0.37273034 -0.09216974
000250 76 c0 45 3d 3c 84 b9 3d 0d df 16 be 1e b0 d8 3d
       0.04827925 0.09058425 -0.14733525 0.10580467
000260 13 b9 1d 3c 7a 42 3c 3d 26 dc dc 3d f2 09 07 be
       0.009626645 0.045961834 0.107841775 -0.13187388
000270 06 7b 5d bd 20 87 61 bd 2b 64 f0 3d 2f 54 8f bd
       -0.054072402 -0.055060506 0.117378555 -0.069984786
000280 f9 05 9a 3d 66 e6 87 be 22 41 dc bd bf cf 81 bd
       0.075206704 -0.26542968 -0.107546106 -0.063384525
000290 d5 0c c0 bd 31 85 e3 3c f8 b4 c1 bd 5b 87 9b 3d
       -0.093774475 0.027773472 -0.09458345 0.075941764
0002a0 bc 96 30 3c ff 88 98 bd 04 a0 d8 be 13 df 17 3d
       0.010778125 -0.07448005 -0.42309582 0.037077975
0002b0 fa 87 33 be d8 f1 e1 bd 51 90 30 bd 60 c0 63 bd
       -0.1753234 -0.11032456 -0.04310638 -0.055603385
0002c0 fe 6f 59 bd 28 11 49 bc 34 ac 0c 3c cc 32 4d bc
       -0.05308532 -0.012272157 0.008585978 -0.012524318
0002d0 a6 25 d2 3c 47 3b 21 3d 48 76 0e be a3 e8 ef bb
       0.025652718 0.039363172 -0.13912308 -0.0073214336
0002e0 80 90 78 3b 1b db bd bd b4 2a bb bd ed 86 e3 3d
       0.0037927926 -0.09270307 -0.09139004 0.111097194
0002f0 ae d2 f2 3d 90 5f a5 3c 94 2e 73 bd 17 2b 48 3d
       0.1185659 0.02018717 -0.059370592 0.04886922
000300 34 30 be bd 24 da c4 3c 8c a5 29 3d 9b 7a 5c bd
       -0.09286538 0.024029799 0.041417643 -0.053827863
000310 28 2d dd bc 33 84 20 bd 32 9b d0 bd ae f1 52 bd
       -0.026999071 -0.039188575 -0.10185851 -0.051500015
000320 d9 fc 90 bd 09 fe cb 3c f4 cb 83 bd 22 fd a3 bc
       -0.07079477 0.024901407 -0.06435385 -0.020018164
000330 60 2a ee 3d 3f b6 12 be 61 fc 3c 3c c0 3e 9a bd
       0.11629176 -0.14327334 0.011534781 -0.075315
000340 a7 e3 0e 3b d7 f2 c0 bd 58 cb 6d bd b2 87 83 bd
       0.0021803172 -0.09421318 -0.05805525 -0.06422366
000350 a2 15 82 bd 4d 82 04 bd e7 cf 86 bb 19 1f de 3d
       -0.063517824 -0.032350827 -0.0041141394 0.10845775
000360 cd b5 ed bd 36 47 e5 bd 85 e2 d2 bd 43 24 47 3b
       -0.11606941 -0.11195223 -0.102971114 0.0030386604
000370 bc d3 1e 3d ec 75 f8 3c 4b 0a 28 3d 0d d9 88 bd
       0.038776144 0.030329667 0.04102544 -0.06682024
000380 9e 3d 52 3d 9d 76 15 3d 4c 68 fe bd 7c f1 0f 3d
       0.051328294 0.03649007 -0.12422237 0.035142407
000390 fa 36 58 3d a3 05 5c bd dd ad 13 bc fe de c8 bd
       0.052786805 -0.053716313 -0.00901362 -0.098081574
0003a0 ed 0d 34 bd 80 14 bb 3b 77 0f ae 3b 79 08 0a be
       -0.043958593 0.005709231 0.005311902 -0.13479795
0003b0 dd b8 45 be f7 32 6e 3d 30 28 ff bd 6b 5e a4 b9
       -0.19308801 0.058154073 -0.12458837 -0.00031350864
0003c0 7e b3 bc bc d4 5b e3 bd 04 02 9d 3d bd 1a a6 bc
       -0.023034807 -0.11101499 0.076664 -0.020276422
0003d0 09 48 08 bd d9 0c 67 bc 53 5b 07 be 6b 98 00 be
       -0.033271823 -0.014102184 -0.13218431 -0.12558143
0003e0 48 b1 10 3d 71 d5 a8 bd 5e d0 93 3d e2 53 a8 bd
       0.03532532 -0.08243836 0.07217477 -0.082191244
0003f0 a9 a3 e4 3d ca d4 ae 3d 8a 85 6c bc 9c a0 62 bd
       0.11164028 0.0853668 -0.014436135 -0.05532895

conv2.bias f4 [32]
000000 df ee 8a be b4 24 d3 bd 28 7c 71 3d 64 3f 2e bd
       -0.2713537 -0.10309735 0.058956295 -0.042540923
000010 37 92 29 be 50 85 01 be 8e d9 11 be 36 32 0f be
       -0.16559683 -0.12648511 -0.14243147 -0.13983998
000020 85 af 06 be 35 99 a8 3c 78 94 ac be 1d 0a 48 be
       -0.13152893 0.020580867 -0.33707023 -0.19535108
000030 18 85 53 bf bd 38 5f bd a4 22 7d be d7 a4 ea bb
       -0.8262496 -0.05449747 -0.24720246 -0.0071607637
000040 82 04 12 be e5 28 f1 bd d4 ac 98 bd 20 d7 f2 3c
       -0.14259532 -0.11775378 -0.07454839 0.029643595
000050 c4 57 3a be 10 80 c9 bc ad 5e a1 be b1 de af bd
       -0.18197542 -0.024597198 -0.31517544 -0.08587397
000060 75 79 11 3d 78 bf d0 bd e8 f0 da bd 90 6a 03 bf
       0.03551622 -0.1019277 -0.106904805 -0.51334476
000070 c0 7e 5f be f8 f2 bc bd 27 d6 02 be 4a b2 f5 bd
       -0.21825695 -0.0922603 -0.12777005 -0.119968966

conv3.weight f4 [1, 32, 5, 5]
000000 2c 66 b2 3b 4a 01 af 3b 75 28 72 bd 3f 58 15 be
       0.0054443087 0.00534073 -0.059120614 -0.14584444
000010 02 32 8a 3d c0 67 a1 bd 45 96 01 bd 17 20 63 bd
       0.067478195 -0.07881117 -0.03163745 -0.055450525
000020 6a d1 84 3b 8c 89 ad bd 2c 33 3b 3c 2e 85 b5 3c
       0.0040532844 -0.084735006 0.011425775 0.022158232
000030 9a 2a b5 bc 94 54 12 bd 40 48 9a bd ea e3 e1 bc
       -0.02211504 -0.03572519 -0.07533312 -0.027574498
000040 fc 66 a4 3d 98 e7 57 3d f7 df e0 3b 6c 75 32 3d
       0.08027455 0.0527111 0.006862636 0.043569013
000050 4e 9e 98 bd 74 73 c0 3b df ea 01 3d f5 10 cb bc
       -0.07452069 0.005873138 0.03171813 -0.02478836
000060 ff d7 0f bd b1 a9 d6 3c 59 4f 73 bb 92 6d 40 3c
       -0.0351181 0.026203962 -0.0037126152 0.011744874
000070 8e c0 69 3d 67 fa 57 3c 99 62 bd 3c b1 39 ae 3c
       0.0570684 0.013182259 0.023118304 0.021267744
000080 f2 80 90 3c 50 bb 46 3b 5e 6a 22 3b 86 88 8a 3d
       0.01763961 0.003032405 0.0024782638 0.06764321
000090 76 97 ab 3d d0 4e 1c 3d 8f 1e a7 3d 98 be 28 3d
       0.08378498 0.0381611 0.081601255 0.04119739
0000a0 a9 94 ff bc 8d d4 3f bd 65 8e 3b bc 52 46 cf 3c
       -0.031198816 -0.046833564 -0.011447524 0.025302086
0000b0 db 9e 1d 3d 8f 6a 89 bd 12 c1 67 bd 34 01 03 bd
       0.038481575 -0.067097776 -0.05658061 -0.03198357
0000c0 e5 a4 a8 bc a5 2e 16 bd cb 5c ad 3d 50 79 0b be
       -0.02058644 -0.036665577 0.084649645 -0.13620496
0000d0 e4 49 bf 3d cf 05 0a be d6 53 10 be e1 15 e1 bd
       0.093402654 -0.13478778 -0.14094481 -0.10990501
0000e0 22 34 f3 bd 4c 87 a5 3d 33 ab da bd 64 ca 66 be
       -0.11875178 0.080824465 -0.10677185 -0.22538143
0000f0 db 86 6f 3d 25 a3 3e 3e 5c a5 cc 3e 8d 9e 61 3e
       0.058478218 0.18616922 0.3996991 0.22033139
000100 f8 b0 ac 3e 5e 4f 7f be 22 73 81 be 4d dd 0d bc
       0.33728766 -0.2493262 -0.25283152 -0.008658719
000110 57 80 37 be e5 37 3f be 16 5a 2a 3e 40 91 2f be
       -0.17920052 -0.18673666 0.16635928 -0.17145252
000120 a6 b6 76 3c 66 ec db bd 3c 3f 0b bc ad 5d 10 3c
       0.015058195 -0.10738449 -0.008498963 0.008811397
000130 f5 25 df 3c 0b 06 0d bc ca a9 74 3b 6d 06 81 bc
       0.027239779 -0.008607398 0.0037332647 -0.015750134
000140 57 b6 e2 3c 64 d4 09 bc 1e a6 ba bc 6c 15 fc 3c
       0.027674837 -0.008412454 -0.022784289 0.030771933
000150 e4 b8 fd bc b0 49 ce 3b 3e 18 8f 3c 51 1c 95 bb
       -0.030971952 0.0062954053 0.017467614 -0.0045504947
000160 d3 a6 36 bc d8 9d d1 ba 15 94 25 bb 2d 96 82 bc
       -0.011148172 -0.0015992476 -0.0025265266 -0.01594075
000170 ab 73 01 3b c8 2c cd 3b 59 ea 9d bc 7c 9d cc 3c
       0.0019752781 0.006261442 -0.019276785 0.024977438
000180 67 36 50 3b d8 aa a5 3c 84 1b 8f 3c 53 64 81 bc
       0.0031770708 0.020223066 0.017469175 -0.015794909
000190 e2 44 87 3d 8d b0 b2 3d 6c fa b0 3d 93 b9 99 3d
       0.06604935 0.08725081 0.08641514 0.075060986
0001a0 c3 6e 17 3e e2 20 90 bd 64 22 09 be 13 04 8a bd
       0.14788346 -0.07037522 -0.13392025 -0.06739058
0001b0 57 61 c5 bd 37 1a 60 bc f9 d7 91 bc 6c 5c 3d bd
       -0.09637707 -0.013678125 -0.01780318 -0.04623072
0001c0 a9 08 c0 bd 25 a3 d7 bd 25 b7 a4 bd df bb d4 3d
       -0.09376652 -0.10529164 -0.080427445 0.10387396
0001d0 a4 5a 14 3d ef 2f 6a 3c 12 3e 53 bd 9f 17 9b bc
       0.036219254 0.014293655 -0.051572867 -0.018932162
0001e0 32 2c b0 3d 16 f3 cf 3d 98 bb 50 3d 60 24 32 bb
       0.086021796 0.10153787 0.050960153 -0.0027182326
0001f0 00 74 34 3d 57 cc 57 bd 39 ee 4a bd d9 06 98 bc
       0.04405594 -0.052685108 -0.049543593 -0.018557953
000200 4f 5f 76 bd 78 ae d3 ba cd 04 7a bd 62 6b d4 ba
       -0.060149487 -0.0016150018 -0.061039735 -0.0016206319
000210 e1 f1 12 bd 24 ad 84 bd 19 69 c5 bc e7 bf 1c bc
       -0.035875205 -0.064783365 -0.024097966 -0.009567237
000220 fe 9b 3d bd b6 79 0b bd 9d a2 a4 39 74 b3 2d bd
       -0.046291344 -0.03405162 0.00031401674 -0.042407468
000230 d0 7b 01 bb ef f4 eb bb 0e 19 c5 bc f0 30 10 bd
       -0.0019757636 -0.007200829 -0.024059799 -0.03520292
000240 1b ef 96 bc 51 b5 63 bd 47 c4 50 bd e2 58 6b 3b
       -0.018424561 -0.05559284 -0.050968435 0.0035911133
000250 e9 01 61 bd 7f e6 97 bc 8a ee 77 3d b4 68 d8 bd
       -0.054933462 -0.018542526 0.060530223 -0.105668455
000260 86 d5 92 bd ee f2 4a bd b2 fc ae 3d 0c b2 ad 3d
       -0.071696326 -0.049548082 0.085442916 0.08481225
000270 a3 83 45 bd 51 d8 12 bd aa 7d 98 bd 70 74 a1 3c
       -0.04822124 -0.035850827 -0.074458435 0.019708842
000280 fa f4 a8 3d 03 02 ac 3c f7 ce 24 bd fa ee fb bc
       0.082498506 0.020997053 -0.04023644 -0.030753601
000290 03 7a a8 bb 5e 19 6c 3d 38 1a 24 3d 8b 3f b9 3c
       -0.005141498 0.05764138 0.040064067 0.022613307
0002a0 ae c1 eb bc 76 58 36 bc 1f e6 00 bd 28 c2 21 3c
       -0.028778877 -0.011129489 -0.03146946 0.009872951
0002b0 a1 94 86 3d 63 1d 44 3c 03 e0 c8 bc a3 6c ff 3c
       0.065713175 0.011969897 -0.02452088 0.031179732
0002c0 c7 52 7a bc f1 a7 47 bb 9b f9 1e 3c 43 a8 d6 bc
       -0.015278525 -0.003046509 0.009703065 -0.02620328
0002d0 15 12 8c 3b 69 36 2f bd 3b ce 68 3c dd da bf 3d
       0.0042746165 -0.0427765 0.014209325 0.09367917
0002e0 7b fa c5 3d ba 6a 53 bd 2f 9a b5 bd a3 0f 6e bc
       0.09666916 -0.051615454 -0.08867299 -0.014530095
0002f0 cc d3 4a 3d 78 39 eb 3d d7 42 2b bd 34 0f 2c bd
       0.04951839 0.11485571 -0.04181179 -0.042006686
000300 4b 1a a0 bc 4a 0d 51 3d e7 32 f1 3d 86 a9 87 bd
       -0.019543787 0.051038064 0.11777287 -0.06624131
000310 b3 87 35 3d 80 31 1f 3d 77 24 8f 3d 1e 88 9c 3d
       0.044318866 0.038865566 0.06989377 0.0764315
000320 54 a0 04 3d 3b 98 91 3c b4 34 27 3d fb f7 e6 bb
       0.032379463 0.017772784 0.040821746 -0.0070486045
000330 fe ba 10 3c d9 5c c0 3c b2 e4 9e 3b f9 ab 0c bd
       0.008833645 0.023481773 0.00484904 -0.034343693
000340 0d a6 15 bc fb c5 2a bc 02 66 2f 3d e4 88 dc 3a
       -0.009133828 -0.010423179 0.04282189 0.0016825465
000350 5e b6 4a bc e0 eb b2 3c 5c 70 a1 bc e5 20 2b bb
       -0.012372581 0.02184099 -0.019706897 -0.0026112136
000360 01 a3 8a 3c 35 59 13 bd f7 ad 8a bd 00 a6 3d bd
       0.01692343 -0.035973746 -0.067714624 -0.046300888
000370 57 ea 66 3c 5c 32 ca 3c 18 92 a9 bc 21 f7 8f bd
       0.014093957 0.024682216 -0.020699546 -0.07029558
000380 15 62 85 bd 87 5d c0 bd 5a 52 b3 bd 15 8b dd 3c
       -0.06512848 -0.09392839 -0.08755942 0.027043859
000390 8a 23 b1 3d 1d 08 e3 bd 47 61 e9 3d f8 49 38 3d
       0.08649357 -0.11085532 0.11395507 0.044992417
0003a0 fa 0c 92 3d 95 9a 28 3e e6 67 6c bb 4f 96 36 bc
       0.07131381 0.16465218 -0.003607267 -0.011144235
0003b0 eb e5 c7 bd 67 61 f1 bd 38 40 15 3e fe 36 f1 3d
       -0.0976065 -0.11786156 0.14575279 0.11778067
0003c0 b9 a3 b9 3d 3c f8 63 3d 74 2e 90 bd 37 43 04 3e
       0.09064431 0.055656657 -0.0704011 0.12916265
0003d0 93 fb 26 3e 1d da 93 3d 5c ac db 3d 2b 05 75 39
       0.16306905 0.07219336 0.10726234 0.00023366946
0003e0 4a d9 bf 3d b8 d8 bc 3d b0 e0 9b 3d 2c aa 26 3d
       0.093676165 0.09221023 0.07611215 0.040689632
0003f0 f2 af 92 bd 2e 3d 93 bd a5 bc 27 3d aa ab 00 bd
       -0.07162465 -0.071894035 0.04095139 -0.03141371
