pretrained_models/SRCNN_10epochs.pth (torch, 34831 bytes, 5 tensors)

conv1.weight f4 [64, 1, 9, 9]
00000000: c469 f8bd 4888 0dbe 65dd a6bd 6ec1 8e3d
00000010: a30d ad3b 8f2a e4bd 4413 57bd add0 ccbd
00000020: d4e6 09be 363e 0dbd b84b 9c3d 906e 54ba
00000030: 50b9 a43d 1957 933d c111 f73d a136 073a
00000040: e729 e93c 8e37 81bc bde9 ea3c c0a6 85bd
00000050: 39ad 25bc a123 d03d 5112 a63d cc1e 8bbd
00000060: 2da2 35bd c348 8fbd 0e47 76bc 69ad 283c
00000070: 24b8 2cbd 09f2 a53d 49cd 783c 17f2 ac3d
00000080: 9e14 513d b65c acbd 77cc 893d 5d23 253d
00000090: c443 3dbd d649 15bd f714 85bd 3c51 f43c
000000a0: f628 b33c dcef 6c3d f012 0dbc b673 dabd
000000b0: 57bf 903c 901b 34bd 7d3e 47bd 3096 fabd
000000c0: 38e1 1ebe 4d8d 8abd f2ef 2bbe cb76 81bd
000000d0: 400d cebd 4749 963d 058b 9ebd e31d c3bd
000000e0: 1fa8 98bd 313b 46be 4c85 16bc 823b 81bd
000000f0: 7a8e 0cbe 5849 e9bd bde5 4a3c 6b06 133e
00000100: 2f37 24bc aeac d73c 75d5 2abd cb4d 3cbc
00000110: 4416 dbbd 7b6b 2fbd 0b80 f2bd a8e3 05be
00000120: 5094 133e 137d ce3d ab40 ecbc 39f6 933d
00000130: 6c23 d83c d374 03be d3e4 a4bc 94f9 17bd
00000140: 6e3e a43d 4258 23bd e7d9 56bd 9c8b 323d
00000150: 9d72 5dbc 4a25 e2bd e68e 013d d108 28bd
00000160: e4a2 903d fb12 103d 274b cfbd ddd7 953d
00000170: 7079 863d 2a76 abbd 7366 1ebd 5978 a5bc
00000180: 600a 9c3d b008 6ebc a485 d4bd e137 22bd
00000190: ea3b 45bc 8ffd 2ebd b106 bc3d 6363 c03d
000001a0: a34f de3b 8247 23bd c489 5a3d e929 44bd
000001b0: 3498 c23d 2e8f b7bd 0ced b7bd c3dc bcbd
000001c0: b8f7 9a3d 3933 9a3d 247a ad3c 4804 6abd
000001d0: 1b4f 87bc ff1f 993d 3fde bbbd 2530 1a3d
000001e0: f8f0 edbd 13b4 913d 0537 843d 15a3 a43d
000001f0: 9718 d0bd 0067 f1bd 5588 9ebd bfec d0bd
00000200: fbf6 ca3d e543 a1bd f502 a93c 08a2 0abd
00000210: 7c14 8c3d 0a1b b83d 6c46 b43d 540f d33c
00000220: aa0f e8bd 26e6 b23d 737d e8bc bb5f 42bd
00000230: 0a39 583c 07f9 80bd 8c52 ba3d 61b4 743d
00000240: 1186 d83c 2809 88bd 9f1a ee3c 44f9 e5bd
00000250: d30c c6bd c4c8 023d a75d 4bbd 66e6 383d
00000260: 0a89 cbbc 0c03 cf3d 3316 963c 4427 57bc
00000270: 0123 a63d 16b0 0c3d 75bd c43d e218 9bbb
00000280: 5473 2cbd 3586 9ebd ead7 ebbd 1463 763d
00000290: 7068 05bd 13f6 a53d 678f c0bd 49b5 e2bd
000002a0: 138c 1cbd 1445 6dbd 840f 573d 6b40 9ebc
000002b0: d67c cabd 9c06 ffbc 901d a73d 8c41 613d
000002c0: 2134 7b3c 72d0 47bd b40d cbbd 9c49 513d
000002d0: e4ae 943c 8e7e a5bc 816f 78bd cc40 b9bd
000002e0: af48 593d 6d85 52bd 8e50 123d 7436 323c
000002f0: f57e c33d c1b2 0e3d 32ae 9dbd d696 e7bd
00000300: 63d6 2d3c c466 813d ff4f 463d 5ed6 6f3c
00000310: 9979 1abd 90ae f4bb cc0f b53d a194 6f3d
00000320: f5e4 b63d b99f 853d 06e4 c2bd 813e b5bd
00000330: 3534 9dbd 0f32 c93c 1721 37bd 0ba9 6fbd
00000340: 7930 96bd 756d 55bd aec3 adbd 6e42 cebd
00000350: 3eef fd3c 7664 e6bd 8f2c 88bd c999 6e3b
00000360: 208f 1a3d a788 ecbc 8c41 083d 0383 03bd
00000370: a315 853c 2e1e a6bd e0b2 293d f230 5b3d
00000380: 967e 34bd c215 edbc 0f73 93bd 5e99 f83c
00000390: 6576 333d 6cc3 b03c 18ba 3fbc 6239 36bc
000003a0: de6a 01bd a54d b63d 7471 6cbc ef6d ae3d
000003b0: 8f54 1e3d 8db3 fabd 9d48 863d b887 083d
000003c0: 2b33 08bd 329b 26bd 2eb2 7d3d 729d e13d
000003d0: 09eb 853d 0628 11bd 5546 fe3c 03db 373d
000003e0: 56c2 3f3a 9164 4d3d cfda 9cbd c84b 8bbd
000003f0: 94d5 613c 4488 85bd 0f6d 913b 5403 95bd
-0.12129548 -0.13821518 -0.081476964 0.069704875 0.0052811666 -0.1114093 -0.052508608 -0.10000739
-0.1346696 -0.034483157 0.0763163 -0.00081036333 0.08043158 0.07194347 0.12063933 0.00051579816
0.028462363 -0.01577356 0.028675908 -0.06525946 -0.0101121 0.10163046 0.08108962 -0.067929834
-0.044344116 -0.069963 -0.015031589 0.01029525 -0.042167798 0.08102805 0.015185663 0.084446125
0.051045053 -0.08416121 0.06728452 0.04031693 -0.046207204 -0.03644737 -0.06498139 0.029823892
0.021870118 0.057845935 -0.008610472 -0.10666601 0.017669363 -0.0439716 -0.048643578 -0.12235677
-0.15515602 -0.06765232 -0.1679075 -0.06321486 -0.10061121 0.07338195 -0.077413596 -0.09527185
-0.074539416 -0.19358517 -0.009187054 -0.06310178 -0.13726225 -0.11390942 0.012383875 0.14357917
-0.010022922 0.026327457 -0.041707475 -0.011493157 -0.10697606 -0.04282711 -0.118408285 -0.13075125
0.14412045 0.1008245 -0.02883943 0.072246976 0.026384078 -0.12837534 -0.020128643 -0.03710325
0.0801972 -0.03987909 -0.0524539 0.043590173 -0.0135160955 -0.110422686 0.03163042 -0.041024033
0.07062319 0.03517435 -0.10121756 0.07316563 0.06566131 -0.083721474 -0.038671922 -0.020198988
0.076191664 -0.014528438 -0.103770524 -0.03960407 -0.01203821 -0.04272228 0.09180964 0.093939565
0.006784396 -0.039863117 0.05335404 -0.04789153 0.09501687 -0.08962856 -0.0898076 -0.092217945
0.0756678 0.07529301 0.021176405 -0.05713299 -0.016517213 0.07476806 -0.091732495 0.03764357
-0.11618227 0.071144246 0.06455807 0.08038918 -0.1016094 -0.11787224 -0.07740847 -0.10201406
0.09910389 -0.07874278 0.020631293 -0.03384593 0.068398446 0.08989532 0.088024944 0.025764145
-0.11331113 0.087353036 -0.028380131 -0.047454577 0.013197193 -0.06297498 0.09097776 0.059742335
0.026431115 -0.066423714 0.029065428 -0.11229184 -0.09670415 0.031929746 -0.04964986 0.0451416
-0.024845619 0.10108003 0.018321132 -0.01313192 0.08112145 0.034347616 0.096064486 -0.004733191
-0.042102173 -0.07740442 -0.11515792 0.060153082 -0.032570302 0.081035756 -0.09402352 -0.11069734
-0.038219523 -0.057927206 0.05250503 -0.019317826 -0.09887092 -0.031131081 0.081599355 0.05499415
0.015332253 -0.048782773 -0.09914723 0.05109559 0.0181498 -0.020201948 -0.060653213 -0.09045562
0.053047832 -0.051396776 0.035721354 0.01087724 0.095456995 0.03483844 -0.07699241 -0.113080665
0.010610196 0.06318429 0.048416134 0.014638511 -0.03771362 -0.0074670985 0.08840904 0.058491353
0.08930389 0.06524605 -0.09516148 -0.08849812 -0.07675973 0.024560003 -0.04470929 -0.05851082
-0.07333464 -0.05210634 -0.084845886 -0.10071264 0.030997869 -0.1124963 -0.06649124 0.003640758
0.03773415 -0.028873755 0.033265635 -0.032107364 0.016245669 -0.08111225 0.041430354 0.053513475
-0.044066034 -0.028941039 -0.0719968 0.030346569 0.04381408 0.02157756 -0.011702083 -0.01112208
-0.031596057 0.08901528 -0.014431346 0.08517062 0.03865486 -0.12241278 0.06556819 0.033332556
-0.033251923 -0.04067535 0.061937504 0.110163584 0.0653897 -0.03543856 0.031039396 0.0448866
0.000731503 0.050144736 -0.07658922 -0.068015635 0.013783831 -0.06520131 0.0044380496 -0.072760254

conv1.bias f4 [64]
00000000: 4583 2b3e 0dab e5bd d87a 70bd b857 f1bd
00000010: 0a57 45bd c35b 073e 8a67 68bb 9a3d ab3d
00000020: a5b8 61bd bf7e 58bd a6dd a13d c8ba 573c
00000030: 0035 6fbd e28a 3f3d 689c 143b 1f03 e9bd
00000040: ddb2 fd3d 895b 8c3d ecbf 023e 9bd9 b7bc
00000050: f7ff 593e 3be2 51bd d510 5a3d 8648 c3bc
00000060: fcf1 92bd 1a39 a6bd 9642 cfbd 6711 a73e
00000070: dc90 08bb 9e47 b63d 41e0 7cbd 8037 87bd
00000080: d1bd 48bd 84b8 b7bb 49ea 183d 9883 903d
00000090: 6cf6 603c 18a0 5cbd 1256 83bd 07fa ce3d
000000a0: 6825 d93d 5b52 51bd 0923 35bc d397 213d
000000b0: d543 27bc 95c4 04bd c6f3 32bc f2e9 253d
000000c0: 5db6 b8bd dd36 903e 495f df3d 98aa a43d
000000d0: c337 79bb ce63 523c aada 1f3d a2b5 d1bd
000000e0: 5488 bfbd f8fc 12bb 21cd 85bd 8757 483e
000000f0: e91d d1bd a9f8 c7bd 745f 48bc 2b15 2fbd
0.16749294 -0.11214266 -0.058710903 -0.11784309 -0.04817871 0.13218598 -0.0035462105 0.08361359
-0.05510773 -0.05285525 0.07903604 0.013167091 -0.058400154 0.04676331 0.0022676233 -0.113775484
0.12387631 0.068533964 0.12768525 -0.02244263 0.21289049 -0.05124114 0.05323871 -0.023838293
-0.07175061 -0.0811636 -0.10120122 0.32630464 -0.0020838296 0.08900379 -0.061737303 -0.06602383
-0.049009148 -0.005606713 0.037332807 0.070563495 0.013730627 -0.053863615 -0.06412901 0.10106283
0.10602838 -0.05110393 -0.011055716 0.03945143 -0.0102090435 -0.032414038 -0.010922378 0.04050631
-0.09019158 0.28166857 0.10906846 0.08040351 -0.0038027621 0.012841178 0.039026894 -0.10239722
-0.093521744 -0.0022428613 -0.06533266 0.19564639 -0.10210783 -0.09764225 -0.012229789 -0.042744797

conv2.weight f4 [32, 64, 1, 1]
00000000: 2759 88bb 2c31 83bd 6028 cf3c 4492 7dbd
00000010: 0cc1 1c3d 9610 43be f44f 20bd 2f8d a9be
00000020: c9f4 c23d db83 8dbe 480e 34be 185f 123d
00000030: dc55 3bbd 7cd4 0f3d 0ccd 3fbc e38f dcbc
00000040: 853f 7dbd 0555 9ebd 69d9 133d 29bb dfbc
00000050: 2029 b1be ee32 c7bd d9de 91bd 354d 0a3e
00000060: 781a 293d 4078 27bd adae ab3d 7428 4fbc
00000070: 166f 9c3d f36f 603d e79c 363e fbae 18bc
00000080: 06ba 2ebd 6eb3 083e 89c4 52bd e35e 613e
00000090: d151 1ebc 4ea8 a03d 84ef b6bd 18b2 343e
000000a0: 849f cdbc 40ce 263c 8846 d53d 6353 7dbe
000000b0: d7b3 36bf d46a 9abd b8bf c43d 9345 a2bc
000000c0: 2a49 ec3d 6a34 a4bd fe12 d2bc 9131 803e
000000d0: 5cee 0c3d ddd5 333e 0970 953d 6ec2 fc3d
000000e0: 9041 17bc 5242 873d dc81 42bb cf23 3fbe
000000f0: 5059 9e3b 0875 3cbd 81d4 b1be ba6c 9fbd
00000100: a882 10be 8e04 863d b079 243c 4a40 24be
00000110: de61 e43d 2468 57bb c96c ce3d e07b 98bd
00000120: 30a1 083c fc79 84bd 94e8 c03b b396 0fbe
00000130: e010 f7bc 6f88 71bd c74c 993b 32a5 f9bd
00000140: 66f9 9c3d be69 fdbb 8010 13be fb94 953c
00000150: 44af 22be f8b2 743d b417 e8bc d0ba 04be
00000160: 6edb 903d da62 d23d 5069 47bd 625f 7cbc
00000170: 1470 253d 2f7e c63c 7082 80bc 8c62 babd
00000180: f0cb ca3c 420f f4bd e6ad 6abc cf37 d7bd
00000190: 4ace 233c a29c f2bc 35aa 83bd d708 c8bc
000001a0: 7e11 1dbe 10ed 583d 8cc7 e9bd e63a a7bc
000001b0: f607 093d 975b 02be 18f7 a0bd b4cf a3bd
000001c0: 88cc ddbc d03e 1d3c 21f4 c0bc 2859 b4bb
000001d0: 2978 9dbd d5d3 f7bd 8662 05be 1499 efbd
000001e0: 8068 d13b b778 51bd 20ef 56bd 70e3 ebbd
000001f0: e92e f5bc 5062 643d a3f9 4dbd b23f bf3d
00000200: 437b bf3d 224f 2a3d 474a 33ba 2f37 593c
00000210: ad3d 803d ba1e f0bd 1a74 a03c cd14 a33d
00000220: acfd e93d c4f9 79be 22f6 333d a784 38bd
00000230: 5018 13bd f010 07be 2d4b 7d3d df52 89bd
00000240: eaf7 2fbd 723c 18be a8d4 8dbe 7dc3 bcbd
00000250: 890f 20bd 3c84 b93d 690d 11be 1eb0 d83d
00000260: 13b9 1d3c 7a42 3c3d 26dc dc3d f6fe 92bd
00000270: 067b 5dbd 458a ecbd 2b64 f03d c473 e0bd
00000280: f905 9a3d 704b cfbd 2241 dcbd 48d1 81bd
00000290: d50c c0bd 3185 e33c 9da7 34be 7ec0 0a3e
000002a0: 83fe e3bd ff88 98bd 87a9 4fbd 64cd a7bd
000002b0: ec88 14be df24 e3bd 5190 30bd 5aa7 20bd
000002c0: fe6f 59bd c0ee ca3c c131 98bd 9ede a93d
000002d0: a625 d23c cf99 f6ba 587d 6fbe a3e8 efbb
000002e0: 8090 783b 1bdb bdbd b42a bbbd 8269 a5bd
000002f0: ebeb 6d3d 905f a53c d77a ddbd 172b 483d
00000300: 3430 bebd 24da c43c 8ca5 293d 9b7a 5cbd
00000310: 282d ddbc 3b8f c9bc 329b d0bd aef1 52bd
00000320: d9fc 90bd 09fe cb3c 1ca3 82bd 22fd a3bc
00000330: 602a ee3d 3fb6 12be 61fc 3c3c 1fd3 90bd
00000340: a8be c03c d7f2 c0bd 5f8e 6dbd b287 83bd
00000350: a215 82bd 4d82 04bd e7cf 86bb 191f de3d
00000360: cdb5 edbd 3647 e5bd 85e2 d2bd 0976 e13c
00000370: bcd3 1e3d 4072 fd3c 4b0a 283d d741 87bd
00000380: 9e3d 523d 30c2 2f3d 4c68 febd 7cf1 0f3d
00000390: fa36 583d a305 5cbd 8c65 9aba d494 c2bd
000003a0: ed0d 34bd 8014 bb3b 770f ae3b 7cf4 09be
000003b0: 58b7 45be f732 6e3d 3028 ffbd 6b5e a4b9
000003c0: 7eb3 bcbc 08b3 e2bd b1cc 9f3d 5896 923b
000003d0: 0948 08bd d90c 67bc e092 02be 6b98 00be
000003e0: 48b1 103d 71d5 a8bd 5ed0 933d 2d74 a7bd
000003f0: a9a3 e43d cad4 ae3d fa23 6bbc 9ca0 62bd
-0.0041610184 -0.06405863 0.025287807 -0.061907068 0.03827004 -0.19049296 -0.03913875 -0.33115527
0.09519345 -0.2763966 -0.17583573 0.03573522 -0.04573618 0.03511475 -0.011706602 -0.02692408
-0.061828155 -0.0773106 0.03609601 -0.027310925 -0.34601688 -0.09726511 -0.07122583 0.13506015
0.04128501 -0.040886164 0.08382926 -0.012643922 0.076383755 0.054794263 0.17833291 -0.009319062
-0.042657875 0.13349697 -0.05145696 0.22008853 -0.009663061 0.078446016 -0.08932403 0.17646062
-0.025100477 0.01018101 0.104138434 -0.24738841 -0.71368164 -0.07539907 0.0960688 -0.019808566
0.115373924 -0.0801781 -0.025643822 0.25037816 0.034407005 0.17562051 0.0729676 0.12341772
-0.00923194 0.066044465 -0.0029679453 -0.18666004 0.004832424 -0.046010047 -0.3473244 -0.0778441
-0.14112341 0.065438375 0.010038778 -0.1604015 0.11151479 -0.003286847 0.10079343 -0.07445502
0.008339211 -0.06468579 0.0058871005 -0.14022331 -0.030159414 -0.058968004 0.004678342 -0.12189712
0.076647565 -0.0077335527 -0.14361763 0.018259516 -0.15887171 0.05974099 -0.028331615 -0.12961888
0.07073103 0.10272761 -0.04868442 -0.0154036 0.04039009 0.02423009 -0.015687197 -0.091008276
0.024755448 -0.11916973 -0.014323687 -0.105086915 0.009997914 -0.029615704 -0.06428949 -0.024418278
-0.15338704 0.052960455 -0.11415014 -0.020413827 0.033454858 -0.12730251 -0.078596294 -0.079986006
-0.027075067 0.009597495 -0.02355391 -0.0055037923 -0.07688934 -0.12100951 -0.13025865 -0.11699119
0.006390631 -0.051140513 -0.05247414 -0.1151799 -0.029929595 0.05575782 -0.0502869 0.09338321
0.09349682 0.041579373 -0.00068393763 0.013257786 0.06261764 -0.117246106 0.019586612 0.07962952
0.11425337 -0.24411684 0.043935902 -0.045048382 -0.035911858 -0.13190055 0.06183927 -0.067052595
-0.04296104 -0.14866808 -0.27701306 -0.09216974 -0.039077315 0.09058425 -0.14165272 0.10580467
0.009626645 0.045961834 0.107841775 -0.07177536 -0.054072402 -0.1154981 0.117378555 -0.109595805
0.075206704 -0.101218104 -0.107546106 -0.06338745 -0.093774475 0.027773472 -0.17642064 0.13549992
-0.11132529 -0.07448005 -0.050698783 -0.08193472 -0.14505357 -0.11091017 -0.04310638 -0.0392221
-0.05308532 0.024772048 -0.07431365 0.08294414 0.025652718 -0.0018814149 -0.23387659 -0.0073214336
0.0037927926 -0.09270307 -0.09139004 -0.08076765 0.058086317 0.02018717 -0.108144455 0.04886922
-0.09286538 0.024029799 0.041417643 -0.053827863 -0.026999071 -0.02460443 -0.10185851 -0.051500015
-0.07079477 0.024901407 -0.06378767 -0.020018164 0.11629176 -0.14327334 0.011534781 -0.07071518
0.023528412 -0.09421318 -0.057997104 -0.06422366 -0.063517824 -0.032350827 -0.0041141394 0.10845775
-0.11606941 -0.11195223 -0.102971114 0.027522104 0.038776144 0.030938268 0.04102544 -0.06604355
0.051328294 0.0429098 -0.12422237 0.035142407 0.052786805 -0.053716313 -0.0011779531 -0.09501043
-0.043958593 0.005709231 0.005311902 -0.1347217 -0.19308221 0.058154073 -0.12458837 -0.00031350864
-0.023034807 -0.11069304 0.07802714 0.004473489 -0.033271823 -0.014102184 -0.12751341 -0.12558143
0.03532532 -0.08243836 0.07217477 -0.08176456 0.11164028 0.0853668 -0.014351839 -0.05532895

conv2.bias f4 [32]
00000000: 92c8 aebd c949 1fbd 7a69 72bc f0a7 133c
00000010: a165 583c 948e c2bd 5a02 88bd 74f6 9b3d
00000020: f26b bfbd 72f8 c23d 5986 c0bd 018a f93c
00000030: a023 35bd e47c e53c 3068 dabd 8188 b23d
00000040: d0f7 b5bc 5ec7 f03c 8b67 9f3d 529d afbd
00000050: e2cd a9bd 3b80 acbd f88b 433d 615e cf3c
00000060: 5809 d6bd 78bf d0bd 2851 57bc c6fd b83a
00000070: 78c5 513d 2b5c b53d 5403 3b3a 3a09 25bd
-0.085343495 -0.038888726 -0.014795655 0.009012207 0.013207824 -0.09499851 -0.066410735 0.076153666
-0.09346761 0.095200434 -0.09400625 0.030461313 -0.044223428 0.028013654 -0.106644034 0.08717442
-0.022212893 0.02939194 0.07783421 -0.08574928 -0.08291222 -0.084228955 0.047740906 0.025313558
-0.10451001 -0.1019277 -0.013141908 0.0014113716 0.05121371 0.0885547 0.000713398 -0.040292002

conv3.weight f4 [1, 32, 5, 5]
00000000: 6be7 f1bb bf06 d0bb eb4c 8d3b cd75 ea3c
00000010: a6ad 803d d251 753d 1962 423c 66ce 26bd
00000020: e627 babd c5c2 d1bd b642 c83d a47b af3d
00000030: 3b95 013c d4d3 37bd 15eb 20be c4ca fd3c
00000040: 9809 fa3d f55d 533d fa6a dcbc b4a8 0ebe
00000050: 4b53 1abe 46e6 033d 8a34 563d d158 943d
00000060: fd47 cabd b364 533c d5a9 13bc 5d6c e93b
00000070: aee8 1b3d 7472 59bc 8ab6 4fbb d5fb 903b
00000080: 3859 d23b 51ed 9439 cccb 163a 3d68 01bc
00000090: 023a c83c 8fa6 42bc a9fa 243d b964 2d3b
000000a0: bf21 33bc c2b5 c5bc 9825 893b 0927 113c
000000b0: 0d84 053c 039c f2bc 2af2 82bc 56ea f73b
000000c0: 2434 b93c a06b 0c3c 81c2 d4bc 8579 d8bd
000000d0: 2f23 573d 20e8 583d 44c0 9ebc c29c 04bd
000000e0: 0bf8 b7bc 5a38 be3c 78a6 e83d 85e1 543b
000000f0: dc12 a4bc 3495 b4bb 8898 903d b3d8 fd3d
00000100: 53b7 233d 5fd9 8dbd e1d2 82bd f82a 35bc
00000110: 3771 c53d 6b69 403d 57f9 93bd cb1b fabd
00000120: ea0f e73c ac40 3f3d 9303 833c 303e 223c
00000130: 7c21 e73c 4013 03bc cbbe 903b e316 76bc
00000140: 06a7 e83c c66f febb 4c31 b7bc fe8b ff3c
00000150: ac42 f9bc 5412 da3b 4416 923c dd7c 8dbb
00000160: ed3f 34bc ef7a c6ba 98cc 05bb ed97 7cbc
00000170: cd36 183b 0147 d73b 10d3 9cbc 6641 d13c
00000180: 2418 7b3b df90 aa3c 57b9 933c 33cb 7cbc
00000190: 460b a03c c4c6 a83c 7b3e a2bc c567 5abd
000001a0: c4fe e3ba 5946 093d 615c fcbc 6362 0d3c
000001b0: 6947 20bd 9fff ff3b 11f9 053d 0770 8b3c
000001c0: 740a 2ebd 78f2 4cbd 071e acbc 8299 283d
000001d0: 4ae5 443c 462c 8fba 413c 4dbd ac52 a2bb
000001e0: e17b 1e3d 0adb 303d 41ce b23c 18b8 1abd
000001f0: 02ef bf38 905d b3bc 486f 99bc 0193 483c
00000200: ec19 f0bc 82c7 ef3c 71c8 f7bc bc31 ef3c
00000210: d5f6 a5bb 2ef9 0abd d8dc de3b 2b24 ae3c
00000220: 6b09 7dbc 76a4 52bb fe86 ff3c 8636 3cbc
00000230: f9a8 ec3c 8203 c23c 9e47 df3b 3e9e 8cbb
00000240: cf37 4d3c 273a cabc fb32 a4bc 8e56 0d3d
00000250: df76 c4bc 16e5 4b3c a1dc 763c ee03 5dbb
00000260: 6787 053d 4349 bdbc 1bbd 38bc 4f4e 883c
00000270: 0f19 c1bb b997 023d 6355 04bd b0d1 a9bc
00000280: ea96 963c 0afa 263c 6703 d0bc a694 5eba
00000290: 9c74 0cbc ce77 b23c c9a7 7c3c 136b 023c
000002a0: 3bd9 59bc 4a66 a83c 22fc f5bc 3799 1438
000002b0: 42b8 073d 5e53 fbbb 3968 ca3a d969 33bc
000002c0: c7cc 713c 5303 a93c 6e64 f23c bbb9 7ebd
000002d0: 6216 25bd 803e 86bc 3de7 8a3c e152 aa3d
000002e0: 512e 5a3d d260 b7bd dc88 bbbd a7fb 06bd
000002f0: 7c95 893c ebbd 9e3d 5448 1abd c63b 8bbd
00000300: e992 3dbd d266 de3b 1d68 ed3d f770 65bc
00000310: fd2c 6b3c 158f fdbb 9912 b83b 31a3 c33d
00000320: 235c 2d3d 5292 df3c aadd 593d d930 ce3b
00000330: da5d b63c d7c2 103d 5747 543c 09ab f4bc
00000340: c3b9 05bc f7b6 4bbc 88bf 113d 3306 f0bb
00000350: 0a8e b7bc c8da 353c 0d42 fdbc ce64 eb3a
00000360: 68f2 a53c 8e51 03bd 1022 81bd 71ef 24bd
00000370: 71e1 ac3c 6f42 063d 4007 1dbc 0849 66bd
00000380: ae17 4bbd adb8 6f3e 26cd 293e 8d5c f83d
00000390: 78e5 973c da17 c53c 84fd e83d edc4 a33d
000003a0: 0b91 173e 41f2 103c ed5d c53c 11ab ff3c
000003b0: 6ee1 c83b 8ef9 c13d 08b2 963d 515a 883d
000003c0: f7de bb3c e9d8 fe3a 2354 283d 905b a63b
000003d0: 44cc cb3d a158 b33d 9976 a53b 13c6 de3b
000003e0: a879 193d f092 5d3e 028f 913c f60e babc
000003f0: 01b6 a83c 0ccc 38bd 92c8 b5bd 8076 313d
-0.0073823235 -0.0063484604 0.004312148 0.028620625 0.06283121 0.059892483 0.011864209 -0.04072418
-0.09089641 -0.102422275 0.09778349 0.085685045 0.0079091145 -0.04487975 -0.15714677 0.030980475
0.12208861 0.051603276 -0.02690648 -0.13931543 -0.15070836 0.032202028 0.0522962 0.07243503
-0.09877012 0.0129024265 -0.009012659 0.0071235136 0.038063698 -0.013271917 -0.0031694495 0.004424552
0.006419327 0.00028405574 0.0005752414 -0.0078983875 0.024441723 -0.011880531 0.04027811 0.002645774
-0.010933339 -0.02413452 0.0041853897 0.008859404 0.008149159 -0.029615408 -0.015984613 0.007565777
0.02260787 0.008570582 -0.025971653 -0.10570053 0.052523788 0.052955747 -0.019378789 -0.03237606
-0.022457143 0.02322023 0.113598764 0.0032483053 -0.020028524 -0.0055109505 0.07060343 0.12394848
0.039969753 -0.06926226 -0.06387878 -0.011057608 0.09640735 0.046975534 -0.07225292 -0.12212332
0.02820583 0.046692535 0.015992915 0.009902522 0.028214209 -0.008000195 0.0044172755 -0.015020105
0.028399955 -0.0077647893 -0.022362374 0.031194683 -0.0304273 0.006655017 0.017832883 -0.0043178634
-0.011001569 -0.0015142838 -0.0020416137 -0.015417081 0.0023226023 0.0065697436 -0.019143611 0.02554388
0.003831395 0.020821033 0.018032713 -0.015429306 0.019536626 0.020602591 -0.019805184 -0.05332162
-0.0017394652 0.033514354 -0.030805768 0.008629414 -0.039130602 0.007812455 0.03270823 0.017021192
-0.042490438 -0.050035924 -0.021010412 0.04116202 0.012017557 -0.0010923229 -0.05010629 -0.004953703
0.03869236 0.043177642 0.021826865 -0.03777322 9.1521084e-05 -0.0218952 -0.01872982 0.01224208
-0.029309236 0.029269937 -0.030246945 0.02919852 -0.005064825 -0.033929043 0.006801229 0.02125748
-0.01544414 -0.0032141483 0.031192299 -0.011487609 0.028889166 0.023683313 0.0068139574 -0.004291325
0.012525513 -0.024685932 -0.02004384 0.034506373 -0.023982463 0.012444755 0.0150672505 -0.0033724266
0.032599833 -0.023106223 -0.011275555 0.016638903 -0.00589288 0.031882975 -0.032307994 -0.02072987
0.018382508 0.01019145 -0.025392247 -0.0008490778 -0.008572724 0.021785643 0.0154208625 0.007960099
-0.013296421 0.020556588 -0.030027453 3.5428642e-05 0.033134706 -0.0076698503 0.0015442438 -0.010950529
0.014758295 0.020631468 0.029588904 -0.062188845 -0.04030455 -0.016387224 0.016955966 0.08316589
0.053266827 -0.08954014 -0.09156963 -0.032954838 0.016794913 0.07751068 -0.037666634 -0.0679851
-0.046282683 0.0067871595 0.11592124 -0.014003984 0.014353988 -0.007738004 0.0056174514 0.09552611
0.042324197 0.02729145 0.05318991 0.006292444 0.022261549 0.035342064 0.012956462 -0.029866712
-0.008161965 -0.012433759 0.03558305 -0.0073249578 -0.022406597 0.011099525 -0.030915285 0.0017959119
0.02025719 -0.0320602 -0.06305325 -0.04026741 0.021103593 0.0327782 -0.009584248 -0.05622199
-0.04958313 0.23410292 0.16582164 0.12127028 0.018542036 0.024059225 0.11376479 0.07996545
0.14801423 0.00884682 0.024092639 0.0312095 0.006130389 0.09471427 0.073581755 0.066578515
0.022933466 0.0019443306 0.041095864 0.005076833 0.0995107 0.08757139 0.0050495383 0.0067985146
0.037469536 0.21638083 0.017768387 -0.022712212 0.020594599 -0.04511647 -0.088761464 0.0433259
